m.onnx (onnx, 575360 bytes, 25 tensors)

1 f4 [16, 1, 9, 9]
000000 22 7f 69 3d 32 1d 78 bd dc 54 b5 3c 46 97 ae bd
       0.05700601 -0.060574718 0.02213519 -0.08524947
000010 e7 77 9f bd 64 2a fc bc c8 91 bd bc 52 1d 01 3d
       -0.077865414 -0.030781932 -0.023140803 0.031522103
000020 e9 2a 9d 3d f0 00 9e bc 21 9c 97 3d 9c 5c d1 bd
       0.076742 -0.019287556 0.07402826 -0.10222742
000030 67 98 8d bd 14 db b1 bc 6e 51 2d 3d 22 e2 a1 bd
       -0.06913834 -0.02171091 0.042313986 -0.079044595
000040 40 63 9c bc 00 b3 fd 3b 44 54 e7 3c 04 ef ce bd
       -0.019090295 0.0077422857 0.028238423 -0.10104182
000050 00 29 9c 39 b0 73 d8 3b fc 97 82 bd c1 95 b1 3d
       0.00029785186 0.006605588 -0.06376645 0.086711414
000060 94 2b b7 3c 24 33 09 bd 51 82 dd 3d fe 50 3e 3d
       0.022359647 -0.033496037 0.108158715 0.04646396
000070 ce 30 ab bd 2c 9a 90 3c 36 fd 18 bd d9 1b 60 bd
       -0.08358918 0.01765164 -0.037350856 -0.054714058
000080 02 08 d6 bd f5 2d 54 bd e3 49 d9 3d d4 af b2 bc
       -0.10450746 -0.05180164 0.10609796 -0.021812357
000090 40 19 35 bd a4 f8 93 bc fd c8 86 3d 0b c9 9d 3d
       -0.044213533 -0.018062897 0.06581304 0.077043615
0000a0 e1 9a b3 3d b7 6a aa bd d4 9a cf bd 28 22 3b 3c
       0.08769775 -0.083211355 -0.10136953 0.011421718
0000b0 10 e8 f5 bc ce ba 48 3d 10 4c 80 bd aa d6 19 3d
       -0.030017883 0.049006276 -0.06264508 0.037558235
0000c0 f5 fc af 3d fc 80 f5 3c fc 54 ac bd bc 31 e3 3c
       0.085931696 0.029968731 -0.08414647 0.027733676
0000d0 51 ed a7 3d 9f 88 8f 3d 90 9e be bd 24 04 d6 3c
       0.081995614 0.0700848 -0.09307587 0.026125021
0000e0 c8 02 20 3c fe fb 21 3d 21 16 93 3d 96 24 90 bd
       0.009766288 0.03954696 0.07181955 -0.07038228
0000f0 7b 77 c4 3d a0 02 25 3b 82 8f 76 3d 6d 32 d3 3d
       0.095931016 0.0025178567 0.060195453 0.10312352
000100 2b 68 af 3d f8 48 02 bd 36 b8 0d bd 51 73 c6 3d
       0.0856479 -0.03180787 -0.034599505 0.096899636
000110 71 9c c4 3d ef 09 ca 3d db 61 95 3d 0f 43 cd 3d
       0.09600151 0.09865176 0.07294055 0.10022556
000120 56 50 12 bd e0 dc c2 bd 23 59 83 3d 8d 17 9a 3d
       -0.035721146 -0.09514785 0.06413486 0.07524023
000130 60 97 63 3b fe b2 64 3d 46 c8 25 3d 08 1b 91 bc
       0.0034727678 0.055834763 0.0404742 -0.017713085
000140 55 aa be 3d f0 14 a4 bc 4c eb c2 bd ba b8 18 3d
       0.09309832 -0.020029515 -0.095175356 0.037285544
000150 d0 70 9f bc 24 ce de 3c 8b 99 db 3d c0 19 9f bd
       -0.019462973 0.027197905 0.10722645 -0.07768583
000160 14 d6 90 bd 41 8f df 3d 32 ac 4e 3d 90 b4 fb 3b
       -0.07072082 0.109159954 0.050457187 0.007681437
000170 7b d8 82 3d 6a a8 8c bd e2 d8 21 3d ed f9 9d 3d
       0.063889466 -0.0686806 0.039513476 0.07713685
000180 ce 2d 78 bd 5c 1c 88 3c e4 5c 74 bd 8d 3e 9d 3d
       -0.060590558 0.016615085 -0.0596589 0.07677946
000190 c8 5a e9 bc 1c 96 b9 3c 95 1a 5c bd 5f af da 3d
       -0.02848567 0.022654586 -0.053736288 0.10677981
0001a0 58 33 47 bc 56 7f 93 bd 91 a3 8e 3d ce 8f 2a bd
       -0.012158237 -0.07202022 0.069647916 -0.04164105
0001b0 a1 34 9e 3d 84 6c 93 bd f2 ca 71 bd e6 0f 93 bd
       0.07724882 -0.07198432 -0.059031434 -0.07180767
0001c0 38 ae a2 bc 44 5b b3 3c 06 58 88 bd f6 fe 63 3d
       -0.019858465 0.021894105 -0.06657414 0.05566307
0001d0 2c 3c ab bc d9 42 8d bd 6c 3b f3 3c 29 4b bb 3d
       -0.020902716 -0.06897516 0.02969142 0.09145195
0001e0 81 db a5 3d 5d 39 73 bd 90 91 e1 bc ba 79 26 3d
       0.08098508 -0.059380878 -0.02753523 0.04064343
0001f0 06 00 5a 3d 3b 27 b1 3d c8 71 1d 3c 1e ca bf bd
       0.05322268 0.08650061 0.009609647 -0.09364723
000200 a0 48 20 3b 36 cf 27 bd c0 2a 44 bd 00 f3 4d bc
       0.002445735 -0.040969096 -0.047892332 -0.012570143
000210 a0 b4 5a bb 64 06 e2 bd eb a9 c1 bd 76 d8 12 3d
       -0.003337182 -0.11036375 -0.094562374 0.035850964
000220 4e 6c 71 bd 04 63 c0 3c 1c 7f c8 bc a9 d1 da 3d
       -0.058941178 0.023484714 -0.024474673 0.10684521
000230 48 84 cc bc d4 3d c6 bc 34 b9 ab 3c 55 b4 cc 3d
       -0.02496542 -0.024199404 0.020962335 0.09995333
000240 04 0d e0 bd cd 47 8c 3d 5f 75 c3 3d 34 b7 ad 3c
       -0.109399825 0.068496324 0.09543871 0.021205522
000250 d6 dc 43 bd 5b a5 c9 bd a8 a5 4e bc 8c 50 cf 3c
       -0.047818027 -0.09845992 -0.012612738 0.025306962
000260 28 99 5b 3c 2c fe b9 bd 6b c6 c0 bd 21 cb 8a 3d
       0.0134032145 -0.090816826 -0.09412845 0.06777025
000270 62 9b 58 3d 80 1f dc 3a 40 b4 62 3b a2 24 3e 3d
       0.05288256 0.0016794056 0.00345923 0.046421655
000280 e0 dc 94 3b a1 8a a9 3d 54 2a 80 bd e0 db dd bd
       0.004542932 0.082783945 -0.062580734 -0.108329535
000290 b8 54 1a 3c e6 71 23 3d 62 50 6d 3d e4 1a 8e 3c
       0.009419613 0.039903544 0.057937987 0.017346807
0002a0 d1 f3 98 3d 24 9a 66 bd f5 f2 e0 bd 8e e8 9c bd
       0.07468379 -0.056299344 -0.109838404 -0.07661544
0002b0 64 69 93 bc c6 a5 45 3d 63 e7 d7 3d 2c 7e 8b 3c
       -0.01799459 0.048253797 0.105421804 0.017027937
0002c0 00 a3 56 bd 43 1d b1 3d e6 43 03 3d 09 f7 b4 bd
       -0.052401543 0.08648159 0.032047175 -0.08836181
0002d0 56 c6 ba bd 0b 2e c2 3d b5 d5 72 bd c7 77 56 bd
       -0.09119861 0.09481438 -0.05928584 -0.052360322
0002e0 4e e5 79 3d 06 29 5f 3d 00 7a 4e ba 1c e8 e8 3c
       0.061009698 0.054482482 -0.0007876456 0.02843099
0002f0 6a 28 1b 3d 41 5d a5 3d 4a 13 2b 3d de 46 4d 3d
       0.03788034 0.080744274 0.041766442 0.050116412
000300 e4 8e bc bc 68 6d 74 3c 45 60 9a 3d 74 fd a2 bd
       -0.023017354 0.014918663 0.07537893 -0.079584986
000310 fe a9 a0 bd 39 b8 9a 3d 79 d8 8f 3d 93 78 e1 3d
       -0.078449234 0.07554669 0.07023711 0.11009326
000320 6e 30 8b bd 62 99 cf bd 15 28 a1 3d e1 53 cd 3d
       -0.067963466 -0.10136677 0.07868973 0.10025764
000330 f6 32 2a 3d 70 9f f0 bc a9 cc cb bd 32 d6 52 bd
       0.041552506 -0.0293729 -0.09951145 -0.051473804
000340 80 58 26 bd 00 e8 7b bb b4 5e dc bd 14 5c a7 3c
       -0.040611744 -0.0038437843 -0.10760251 0.020429648
000350 a8 e5 75 bc a8 1c 03 bd 85 42 dc bd d8 fc 72 3c
       -0.015008368 -0.03200975 -0.10754875 0.01483079
000360 c4 85 cb bd 11 ce 89 3d bd 47 8b 3d f9 bf ab 3d
       -0.09937623 0.06728757 0.06800792 0.08386225
000370 6e 02 4e bd c4 f9 73 bd b9 09 d5 3d ae ea 5c 3d
       -0.050295286 -0.059564367 0.10402245 0.053934745
000380 50 47 dd 3b 06 a9 69 3d 4b 16 a0 3d 68 8a 11 bd
       0.006752886 0.05704596 0.07816752 -0.035532385
000390 8e e5 d9 bd 60 ca 44 bc 9e d1 d8 bd 81 33 bd 3d
       -0.10639487 -0.012011141 -0.10586856 0.09238339
0003a0 6c 23 a9 3c ac 9d a8 3c 38 a3 26 bc 51 d8 bd 3d
       0.020646773 0.020582996 -0.01017075 0.09269775
0003b0 2c af ff bc d4 76 9a bc c4 3c 7c bd 61 0e d4 3d
       -0.031211458 -0.01885549 -0.061581388 0.10354305
0003c0 e0 c1 a4 3b a7 ea 9f 3d 30 1a ac bc bc a2 b7 3c
       0.0050279945 0.07808428 -0.02100858 0.022416465
0003d0 8d 22 da 3d 5d 57 da bd 27 01 97 3d 89 cb 80 3d
       0.10651121 -0.106611945 0.07373267 0.06288821
0003e0 68 21 11 bd dc a0 97 bd cd 6d e1 bd e0 49 58 3c
       -0.03543225 -0.07403728 -0.11007271 0.013201207
0003f0 c0 d5 4e 3b 22 e7 9f bd 7c 2d b8 bd 24 b4 7a bd
       0.003156051 -0.07807757 -0.089930505 -0.06120695

2 f4 [16]
000000 39 0b 90 bd 80 e7 f0 bc fd c5 77 bd 94 c3 eb bc
       -0.070333906 -0.029407263 -0.06049155 -0.028779782
000010 3d 76 c8 3d 40 64 ed bb 08 8e 69 3c b2 c9 67 bd
       0.09788177 -0.0072446167 0.014255054 -0.056588836
000020 d8 01 6d bc f3 f5 8c 3d f0 11 74 bc 60 b1 35 3c
       -0.014465772 0.068828486 -0.014896855 0.011089653
000030 32 99 4a bd 70 6d 86 bd cb b5 a5 bd 04 30 a3 3c
       -0.049462505 -0.06563842 -0.08091315 0.019920357

3 f4 [32, 16, 7, 7]
000000 4c b0 e0 bc 00 db 85 bc 4a 81 81 bc 20 20 de 3a
       -0.027427815 -0.016339779 -0.01580872 0.001694683
000010 0a f9 28 bc 69 a7 09 3d d5 6c 00 3d 9e f0 8f bc
       -0.010313282 0.03360692 0.03135379 -0.01757079
000020 f7 74 11 3d e8 7a be 3b d0 17 83 3c 80 0d bf b9
       0.035511937 0.0058129914 0.016002566 -0.00036440417
000030 b7 c9 07 3d a2 b1 c1 3c c0 0a 51 3a cc 37 cd 3c
       0.033151355 0.023644272 0.0007974319 0.02505102
000040 14 91 7f 3c e2 f6 b8 3c 5a 68 ef 3c 40 cf f4 ba
       0.015598554 0.02257866 0.029224563 -0.0018677488
000050 ec 51 b8 bc 2a ac fe bc da 0e d5 3c 0e 3f 88 3c
       -0.0225 -0.031087954 0.026008058 0.01663163
000060 30 18 09 3b c9 cc 0b 3d 48 f6 c3 bc be ef 06 bd
       0.0020918958 0.034130845 -0.023921147 -0.03294348
000070 00 da 65 bc 80 cf 34 bb 90 26 49 3b f0 c0 db bc
       -0.014029026 -0.00275895 0.003069315 -0.026825398
000080 c2 79 d4 3c 3e 7a 80 bc 60 ac 6b 3c 00 76 d5 bb
       0.025936965 -0.01568329 0.014384359 -0.006514311
000090 87 ec 03 3d 67 bd 0d bd 6f a5 0d 3d 3a 2e e6 bc
       0.032207992 -0.034604456 0.034581598 -0.028098214
0000a0 de b6 c1 bc 50 27 72 3b fa 59 00 bd 12 d0 11 bd
       -0.023646768 0.0036949702 -0.03133581 -0.035598822
0000b0 b2 07 98 3c 6a 60 90 bc a4 e6 14 3c ac 4d f6 bc
       0.018558357 -0.017624099 0.009088192 -0.030066334
0000c0 af 46 0f 3d a2 14 8b 3c 12 4c 2a bc cc 60 b7 bc
       0.03497952 0.016977612 -0.010394113 -0.022385024
0000d0 08 f0 08 bd 32 3b c8 3c c8 43 08 bd 8c fe f6 bc
       -0.033432037 0.024442289 -0.033267766 -0.030150674
0000e0 72 63 ea 3c a6 a1 15 bc 00 e3 64 bc 40 77 3e 3a
       0.028611872 -0.009132778 -0.013970137 0.00072656944
0000f0 0a 17 ef bc 3a 6f fc bc 8e 84 d3 bc 1a 21 99 3c
       -0.02918579 -0.030814756 -0.025820043 0.018692542
000100 d2 fe 4f bc e3 73 97 bc 17 37 0d 3d 02 1c 03 bd
       -0.012695031 -0.018487876 0.034476366 -0.032009132
000110 95 b9 94 bc 19 e0 00 3d dc 04 ff bb 96 62 0b bd
       -0.018154899 0.031463716 -0.0077825617 -0.034029566
000120 80 f1 24 bc 28 f1 3f 3c 98 30 b5 bc d8 35 d9 3c
       -0.010067344 0.011715211 -0.022117898 0.026514933
000130 ea eb 9b bc ae 34 c0 3c 60 2f a7 bc b5 c5 ce bc
       -0.019033391 0.02346262 -0.020408332 -0.025240758
000140 0c 84 d4 bc 0b 7b 06 3d ca 26 50 bc 18 b8 cc bc
       -0.025941871 0.032832187 -0.0127045605 -0.024990126
000150 f5 c4 00 bd 4d 17 02 bd ae 3b ed 3c 66 a0 58 bc
       -0.031437833 -0.031760503 0.028959122 -0.013221836
000160 f0 81 f3 3b 88 f4 dd bc 40 7b ff ba 45 88 fa bc
       0.0074312612 -0.02709414 -0.0019491687 -0.030582557
000170 f5 43 bd bc 80 0a 16 3b 75 3a 04 3d c6 0b d4 3c
       -0.023103694 0.0022894442 0.03228231 0.02588452
000180 6c c5 b8 bc da bc 03 bd 0e 42 f7 3c 20 64 d5 ba
       -0.022555076 -0.032162525 0.030182865 -0.001628045
000190 9e 87 82 bc b6 9c c9 3c 38 fb df bc b8 c7 a8 bc
       -0.015933808 0.024610858 -0.02734147 -0.020603046
0001a0 60 1a 01 3b c0 12 e0 3a f2 77 64 bc 90 d6 83 3c
       0.0019699559 0.0017095432 -0.013944613 0.016093522
0001b0 52 2d 85 3c 1a b0 96 bc 80 f9 31 3b 4f 38 0a 3d
       0.016256962 -0.018394519 0.002715677 0.033745106
0001c0 88 3c 8e 3b 50 5d 01 3b 0a 6c a7 3c 9e f7 dd bc
       0.004340712 0.0019739456 0.02043726 -0.027095612
0001d0 92 2b 51 bc 7a 6a a2 bc d4 18 24 3c 80 33 15 3c
       -0.012766736 -0.019826163 0.010015685 0.009106517
0001e0 f8 a9 62 3c dc 58 f0 bc 8e 6d de bc a0 e5 29 3b
       0.013834469 -0.029339246 -0.02715185 0.002592422
0001f0 a2 2e 11 bd 1c 9b bf 3c 40 be 0e 3c 48 ff a6 3b
       -0.035444863 0.023389392 0.008712351 0.00509635
000200 fa 23 b9 3c b2 3f 6e bc 85 13 d6 bc ce 2e 53 bc
       0.022600163 -0.014541553 -0.026132355 -0.012889577
000210 98 9b de bc a8 2a 01 3c 34 4f 07 bd f8 51 70 bc
       -0.027173802 0.007883705 -0.03303452 -0.01466798
000220 1b 33 06 3d ea 7d 83 3c 78 48 4b 3c 44 7b 58 3c
       0.03276358 0.016051251 0.012407415 0.013212983
000230 ee 2c dc 3c ee 79 65 bc 00 60 4f b8 2a c6 d0 3c
       0.026876893 -0.014006121 -4.9442053e-05 0.025485117
000240 3d 55 02 3d 84 11 0e bc 40 06 33 bc 24 57 5a 3c
       0.03181957 -0.008671168 -0.010926783 0.01332644
000250 58 a4 0f bc 73 a0 cb bc 18 a7 42 3c 72 32 ed 3c
       -0.00876721 -0.024856782 0.011880659 0.028954718
000260 00 25 7e 3c dc c7 c2 3c 60 21 75 3c b8 7e bc bc
       0.015511751 0.023776941 0.0149615705 -0.023009643
000270 d2 ce 96 3c 71 3f 12 3d 10 af 70 3b b8 36 eb bb
       0.018409166 0.035705034 0.003672544 -0.007178154
000280 b7 63 01 bd 43 32 a0 bc 32 78 8d 3c 52 d3 ad 3c
       -0.031589236 -0.019555217 0.017269228 0.02121893
000290 6a 2f b8 bc 17 d0 04 bd 20 14 00 bc 1c 6d c6 bc
       -0.022483546 -0.032425012 -0.007817298 -0.02422195
0002a0 d0 9c 19 3c 93 4c 06 3d 85 04 98 bc bc 13 01 bd
       0.009375766 0.03278787 -0.018556843 -0.03151296
0002b0 30 b1 87 bc 80 23 7e 3b d6 43 fa 3c e0 c7 a7 ba
       -0.016563982 0.0038778484 0.030549925 -0.0012800656
0002c0 7e ea a5 bc e6 29 68 bc 90 59 00 3c d0 29 c9 3b
       -0.020253416 -0.014170146 0.007833853 0.0061390176
0002d0 50 8e 7f 3b 8c 93 81 bc 60 1e fd 3a 6e c3 b8 3c
       0.0038994737 -0.015817426 0.0019311421 0.022554126
0002e0 a8 34 be 3b b0 5e 82 3b d0 34 c8 bc 51 7c f3 bc
       0.005804617 0.003978573 -0.024439245 -0.029722365
0002f0 00 5f 0e bc 74 fa 7b 3c 1e bc 9d 3c 88 9d dd 3b
       -0.008689642 0.015379537 0.01925474 0.006763164
000300 aa b4 17 bc 48 ba d5 3b f0 30 bd bb 16 b7 d5 3c
       -0.009259382 0.0065224506 -0.005773656 0.026088279
000310 8d 04 0d bd 22 cc f5 3c 34 1c 02 3c 14 0c 10 bd
       -0.034428168 0.030004565 0.007941294 -0.03516777
000320 d8 9f 1a bc 98 84 fc bc 00 1a 91 ba e4 a1 67 3c
       -0.009437524 -0.030824944 -0.0011070371 0.014137719
000330 dc 0e 22 3c 5e 1a f4 3c 8e 82 e6 3c 0a dd 2b bc
       0.009891238 0.02979773 0.028138425 -0.010489712
000340 bc 85 cf bc 1e 83 d0 3c 8e cf c5 3c ca 95 df bc
       -0.025332324 0.025453147 0.024146821 -0.027293105
000350 1c 94 89 3c 6c e7 8d bc 30 34 80 3b a0 fa 0f 3c
       0.016794257 -0.017322265 0.0039124712 0.008787781
000360 dc c3 8c bc ce e0 3f bc 4a 76 ce 3c 1c 31 37 3c
       -0.017183237 -0.011711312 0.025202889 0.011181142
000370 6e f5 c6 bc 9a 23 eb 3c b2 c2 b1 3c 16 95 cb 3c
       -0.024286952 0.0287035 0.021699283 0.024851363
000380 e1 42 f9 bc dc e1 d9 bb 20 e0 7f 3c 00 ce 3c 3a
       -0.030427398 -0.006649239 0.0156174 0.0007202327
000390 70 b7 06 3b 5e 82 ed 3c 00 19 b4 3c ce 5c 1b bc
       0.0020556115 0.028992828 0.021984577 -0.009482576
0003a0 f8 13 4d bc dc 87 e6 bb f6 1c fa 3c 93 47 bd bc
       -0.012516968 -0.0070352387 0.030531388 -0.023105418
0003b0 d5 a8 a1 bc e8 b8 dd bc 8a 4f a6 bc 92 2d 72 bc
       -0.019733826 -0.02706571 -0.020301599 -0.014781373
0003c0 c0 bc 7e ba b3 a8 b8 bc 3e 10 aa 3c ee 88 e1 bc
       -0.0009717457 -0.02254138 0.020759698 -0.027531113
0003d0 9c 71 8c 3c 30 49 5b bb b8 29 a4 3b 78 8c 2a bc
       0.017144017 -0.0033460371 0.005009856 -0.010409467
0003e0 6c 0f 89 3c 2e b1 c6 3c 67 a0 03 3d ab 23 0a 3d
       0.016730987 0.024254408 0.032135393 0.033725422
0003f0 f3 b6 e8 bc 80 42 d4 3b 96 6c ba 3c 48 04 b4 bc
       -0.02840755 0.006477654 0.022756856 -0.021974698

4 f4 [32]
000000 45 40 05 bd 14 eb 83 3c c6 9d d1 3c 58 1f db bc
       -0.032531995 0.016103305 0.025587928 -0.026748344
000010 93 e5 a1 bc 40 c2 ee bb 94 8a a3 bb 00 0b db bb
       -0.01976279 -0.00728634 -0.004990885 -0.006684661
000020 98 f7 50 3c e0 e9 77 3b 68 cd a5 bc 9a ab 9a bc
       0.012754343 0.003782861 -0.020239547 -0.018880654
000030 1a 53 86 bc 6c aa 9b 3c f2 45 fa 3c 5d 61 11 bd
       -0.016397048 0.019002162 0.03055093 -0.035493243
000040 c2 ce 9f 3c a3 52 ed bc dc 03 6d 3c f0 be 87 bc
       0.01950777 -0.028970068 0.014466252 -0.016570538
000050 10 ec f7 3b 0b eb 00 3d 1c b3 bf 3c 08 77 da 3c
       0.0075659826 0.031474154 0.023400836 0.026668087
000060 80 fa b7 3b c6 0f 48 bc 70 51 ee 3b 10 d3 2d bb
       0.0056145787 -0.012210792 0.0072728917 -0.0026523508
000070 08 db 99 3c aa 4e 36 bc eb 20 0c bd 45 ab fe bc
       0.0187812 -0.011127153 -0.03421108 -0.031087527

5 f4 [16, 32, 7, 7]
000000 fc 7d ad bc 38 3e 0d bb c4 73 9b bc f0 e3 16 bb
       -0.021178238 -0.0021551978 -0.0189761 -0.0023024045
000010 a8 5d 9f 3c 90 20 98 3b 1a 9e b9 3c f4 ad b7 3c
       0.019453838 0.0046425536 0.022658397 0.022421815
000020 cc a1 98 3c 1c a2 c5 bc 7a d4 a0 3c c0 6d ae bb
       0.018631838 -0.024125151 0.019632567 -0.005323142
000030 90 87 f9 3b 48 f4 0f bc bc 27 7c 3c 68 9d 43 3b
       0.0076150373 -0.0087862685 0.015390333 0.002984846
000040 e7 fe ae bc fa 74 bf 3c df 77 69 bc 76 fe c1 3c
       -0.021361781 0.023371208 -0.014249771 0.023680907
000050 bc ff aa 3c 31 5b 77 bc 1d 1e 9e bc f0 bc 81 3b
       0.020873897 -0.015097425 -0.019301469 0.0039592907
000060 9a 8b ce bc 74 b2 37 3c b0 24 91 bb 92 63 75 bc
       -0.025213052 0.01121198 -0.0044294223 -0.014977353
000070 c6 f6 92 bc 80 b9 2e 3b 80 5f 6d 3a 10 5d 53 bc
       -0.017939936 0.002666086 0.0009055063 -0.012900606
000080 46 4a c9 3c 0c e0 50 3c 80 c1 0e 3b 80 82 b5 b9
       0.02457155 0.012748729 0.0021782815 -0.0003462024
000090 a8 8c ac bc 12 50 8d bc 70 9b 7f 3c 1c 0f 02 3c
       -0.021063164 -0.017250095 0.015601024 0.007938173
0000a0 b4 e7 9a bc 78 48 9c bc 9c 06 db bb 94 7c 97 3c
       -0.018909313 -0.019077525 -0.0066841375 0.01849202
0000b0 e4 ec 9d 3c 08 7c c6 3b 00 dd 6f ba f4 5a b0 3c
       0.019277997 0.006057266 -0.0009150058 0.021527745
0000c0 98 60 c0 3b a0 7c 79 bc c0 4c 9d b9 a8 40 09 3c
       0.00587089 -0.015227467 -0.00030002557 0.008377232
0000d0 75 f6 51 bc b0 e5 da 3a 52 b9 b5 3c 32 da ae bc
       -0.012815108 0.0016700532 0.022183094 -0.021344278
0000e0 10 b9 dd 3b 68 c7 30 3c b0 30 e7 bb d0 93 1d 3c
       0.006766446 0.01078973 -0.0070553645 0.009617761
0000f0 d0 af 4a 3c 44 5d 97 3c a4 eb ca 3c 70 e6 85 3b
       0.0123710185 0.01847709 0.024770565 0.004086308
000100 0c c6 2c bc 66 5c c2 3c 80 d6 9d bb 16 3c 0d bc
       -0.010545265 0.0237257 -0.00481683 -0.008620283
000110 6c 11 b3 3c 82 fd cb 3c fe 71 80 3c 4e 10 99 bc
       0.021858893 0.024901155 0.015679356 -0.018684532
000120 9a e9 bd 3c 84 c9 b1 3c c3 c7 5d bc 2c 02 05 3c
       0.023182679 0.021702535 -0.013536396 0.008118194
000130 70 f0 c7 ba d4 01 11 3c f0 0c 12 3b 80 7e ee 3a
       -0.0015254151 0.0088505335 0.0022285543 0.0018195659
000140 70 9e ec 3b 80 2b 99 ba e4 57 85 3c 14 ed bb bc
       0.0072210357 -0.0011685938 0.016277261 -0.022940196
000150 a3 24 4a bc c0 b3 aa 3c 00 7f b1 ba 60 8a 14 bc
       -0.012337836 0.020837665 -0.0013541877 -0.009066194
000160 5a d9 57 bc fd 06 b3 bc 00 a4 28 bc 4c a1 2c 3c
       -0.013174379 -0.021853918 -0.010293007 0.010536503
000170 a2 4b 24 bc 38 e9 00 bc 2c a2 69 3c b7 81 ce bc
       -0.010027798 -0.007868104 0.014259856 -0.025208337
000180 44 de 98 3c 2f 03 6a bc 54 45 32 bc 6e 0c 1a bc
       0.018660672 -0.014282986 -0.010880787 -0.0094023775
000190 b0 1a aa 3c f0 9a 10 bc f4 a6 06 bc ce 9a c8 3c
       0.020764679 -0.0088260025 -0.008218516 0.02448788
0001a0 1e 9b a7 3c 00 b9 0d bb 09 8d bf bc 65 6b 87 bc
       0.020459708 -0.0021625161 -0.02338268 -0.016530702
0001b0 4c 90 b4 3c 8c 89 3c 3c 60 1f 02 3a d0 7c c2 3c
       0.022041462 0.011507403 0.00049637817 0.023741156
0001c0 12 97 96 3c 78 3c 12 3b 5a 65 95 3c c0 5f 3f 3a
       0.018382583 0.0022313874 0.018236805 0.00073003396
0001d0 f0 ef 9c bc 8a 19 cb 3c 46 cb ce 3c b8 c4 02 3c
       -0.01915738 0.024792451 0.025243413 0.007981472
0001e0 08 0a 3e 3c 70 38 ca 3b a0 87 56 3a 4c 0b 81 bb
       0.011599071 0.0061712787 0.0008183662 -0.0039381143
0001f0 b8 6e 10 3c 40 ac b2 3c e0 fd 4b 3a 92 b3 c5 bc
       0.00881546 0.02181065 0.0007781666 -0.024133477
000200 92 29 ab 3c d0 ca 13 3b 00 30 24 3b c4 85 bf 3c
       0.020893846 0.0022551306 0.0025053024 0.023379214
000210 e8 a9 d4 3b 9b 33 36 bc d4 42 b1 3b 98 3a d6 3b
       0.006489981 -0.011120702 0.005409578 0.0065377466
000220 54 d4 60 3c fa ae 90 3c a8 00 80 3c ea a3 95 3c
       0.013722498 0.01766156 0.015625313 0.018266637
000230 20 cc 9c bb 45 73 89 bc 24 e7 b3 bc 94 8b 92 3c
       -0.004785076 -0.016778598 -0.021960802 0.017888822
000240 c2 30 a1 3c d2 2b 08 bc 40 b7 bd ba 38 c2 17 3c
       0.01967657 -0.008311229 -0.0014474168 0.009262614
000250 be 95 2a bc 02 69 9d bc 20 1d 2f ba 30 03 62 bc
       -0.010411678 -0.01921511 -0.000668006 -0.013794705
000260 8c dd 8c 3c 98 ff d6 3b 88 fc 9f bb d4 b0 0e 3c
       0.017195486 0.006561231 -0.004882399 0.008709151
000270 00 4b b6 bb fb d6 94 bc 12 02 ca 3c 40 87 21 ba
       -0.00556314 -0.018168917 0.02465919 -0.00061618164
000280 a4 d6 93 3c 90 d5 fc 3b 10 6d 97 3c 2c 25 d7 bb
       0.018046685 0.0077158883 0.018484622 -0.0065657105
000290 30 8d c2 bc 8c 64 0f 3c c0 af b1 bc d0 e9 4d 3b
       -0.023748964 0.008752 -0.02169025 0.003141988
0002a0 b8 bd f9 bb 6c d4 24 3c 2c 79 e6 bb 7c 9a 8e 3c
       -0.007621493 0.010060411 -0.007033488 0.017407648
0002b0 f8 94 85 bb e0 20 94 bc 74 66 cc bb ca 44 b9 3c
       -0.0040765963 -0.018082082 -0.0062377993 0.022615809
0002c0 60 9a 8e bb 21 17 b1 bc 80 b7 5d 3b 60 05 f2 3a
       -0.004351899 -0.021617474 0.0033831298 0.0018464737
0002d0 5e ee a9 3c c0 b6 ff 3b 34 cb 4b 3c ea 4c 2d bc
       0.020743545 0.007803768 0.012438584 -0.01057742
0002e0 2d ce 95 bc f0 1f 08 bb 60 00 31 3b 9f f3 55 bc
       -0.018286789 -0.002077099 0.002700828 -0.013058572
0002f0 48 3b 69 3c ca 80 15 bc d8 6f 0a bb 38 7d 6d bc
       0.014235325 -0.009124944 -0.0021123793 -0.0144951865
000300 83 4b 95 bc 8c 1e 2b 3c f8 f8 c3 3b c0 49 4f ba
       -0.018224483 0.010444295 0.005980607 -0.0007907413
000310 08 e3 e9 3b ac 62 8c bb 63 06 b3 bc c6 bf c1 3c
       0.00713766 -0.0042842235 -0.021853631 0.023651015
000320 dc 30 00 3c 44 31 c7 bc 20 12 66 ba b6 93 1b bc
       0.007824149 -0.024315484 -0.00087765045 -0.009495666
000330 bf 5d 80 bc b6 b2 a9 3c d4 03 cd bc 30 57 9f ba
       -0.015669702 0.020715099 -0.02502624 -0.0012156721
000340 ef 17 95 bc 53 bd 56 bc 15 98 21 bc f9 d7 46 bc
       -0.018199889 -0.013106662 -0.009862919 -0.012136453
000350 0a c4 a4 bc 19 35 7d bc ec 6a af 3c ac 13 86 3c
       -0.02011301 -0.015454554 0.021413289 0.016366802
000360 8d 8b c5 bc 7e b9 94 3c c4 c8 91 3c 88 d4 86 3c
       -0.024114395 0.018154856 0.017795928 0.016458765
000370 8c 21 64 3c d8 6f aa bb 3d e6 98 bc 9f 3c 6c bc
       0.013924014 -0.005201321 -0.018664474 -0.01441875
000380 78 65 d1 3b 88 fe 5d 3c 35 59 5a bc 33 79 75 bc
       0.00639027 0.0135494545 -0.013326933 -0.014982509
000390 94 ef ce bb 88 9b 1e 3b 1e f3 96 3c 30 34 95 3b
       -0.006315181 0.002420159 0.018426474 0.0045533404
0003a0 e8 25 9f bc 64 56 a7 3b b3 79 9d bc d4 fd d0 bb
       -0.019427255 0.005106734 -0.01922307 -0.006377915
0003b0 f8 8e 21 3b 62 00 9a 3c 00 37 df b9 f2 b3 ce bc
       0.0024651866 0.01879901 -0.00042574853 -0.025232289
0003c0 74 aa 9e 3c fe fc 19 bc 84 6b be 3c a1 bd 3d bc
       0.019368388 -0.009398697 0.023244627 -0.011580856
0003d0 e0 9b 2c bc c8 ac f4 bb 20 d8 8c bb 30 74 bd bc
       -0.01053521 -0.007466886 -0.004298225 -0.023126692
0003e0 73 6f a4 bc 78 94 8d bb 9c 8d 7d 3c d0 a8 a2 bb
       -0.020072674 -0.0043206774 0.015475657 -0.0049639717
0003f0 c4 40 62 3c d0 76 60 3c 6c 47 8f 3b f0 0c 65 3c
       0.013809387 0.013700202 0.004372528 0.013980135

6 f4 [16]
000000 a0 01 a5 3c d0 11 e9 3b 92 db a3 3c e7 16 a4 bc
       0.020142376 0.007112719 0.02000216 -0.020030452
000010 76 93 a2 bc 98 b7 d6 3b f7 45 aa bc 9e 23 86 bc
       -0.019845705 0.006552648 -0.020785315 -0.016374405
000020 cc d9 ab bc 60 e4 09 ba 58 8a fe bb b4 6b e6 bb
       -0.020977877 -0.0005260166 -0.0077679567 -0.007031882
000030 b2 64 87 3c 80 13 33 ba d5 34 59 bc 46 a4 cd 3c
       0.016527507 -0.0006831214 -0.013257225 0.025102746

7 f4 [8, 16, 7, 7]
000000 d0 bf 9e bc 8f 4b 03 3d 22 1f ca 3c 40 f8 41 ba
       -0.019378573 0.03205448 0.024673048 -0.0007399358
000010 20 75 ad ba be eb 81 bc 40 fa 7c 3c 63 85 e2 bc
       -0.0013233759 -0.015859481 0.015440524 -0.027651494
000020 4a 43 46 bc 30 fe 68 3b 40 ba 4f ba ae 3f 50 bc
       -0.012101004 0.0035551898 -0.0007924177 -0.012710495
000030 2e c5 32 bc fe aa ff 3c 34 b0 6f 3c 20 0c d0 3c
       -0.010911269 0.031209465 0.014629412 0.025396407
000040 1c 1b b3 3c 9c c0 b9 3c 94 53 9e bb a0 9b 32 3c
       0.021863513 0.022674851 -0.0048317406 0.010901362
000050 e8 32 92 3b ac d5 cf bc 8e 8e 45 bc 5c bb 21 3c
       0.004461635 -0.025370441 -0.0120579135 0.00987133
000060 20 7c fd 3a 70 5a a6 3b 38 6a 41 bc 10 08 1b bb
       0.001933936 0.005076699 -0.01180511 -0.0023655929
000070 ce 99 be 3c c7 da 07 bd 90 80 43 3b c0 5f 8f bb
       0.0232667 -0.033167627 0.0029831268 -0.004375428
000080 a3 ac a2 bc 92 b5 ba 3c c0 db 6b 3a a0 4c 3e 3c
       -0.01985771 0.022791658 0.0008997284 0.0116149485
000090 f2 63 92 3c 07 d1 0f bd a0 4a ca 3a 96 7e ff 3c
       0.017869923 -0.035111453 0.0015433617 0.03118829
0000a0 b5 46 c0 bc 70 73 cd 3c c4 d0 08 3c f2 0f d2 3c
       -0.023471216 0.025079459 0.008350555 0.025642369
0000b0 c8 01 d3 bb c6 c0 0e bd 12 05 71 bc e0 48 52 3c
       -0.0064394213 -0.03485181 -0.0147106815 0.012834758
0000c0 12 3a 23 bc 26 d2 7a bc 2a 2f fb bc 86 76 b4 3c
       -0.0099625755 -0.015308892 -0.030662138 0.022029173
0000d0 72 ec 64 bc b0 ee 97 bc 78 01 62 bc 60 e9 2e 3c
       -0.013972389 -0.018546432 -0.0137942955 0.010675758
0000e0 84 1e 72 3c 25 9a 10 3d 42 e0 eb 3c 92 b7 6b bc
       0.014777783 0.035303254 0.028793458 -0.014387028
0000f0 1b a1 07 bd 38 aa 48 3c a0 b2 7a bb 0e cf 9e 3c
       -0.033112627 0.012247615 -0.0038253441 0.01938584
000100 82 c1 8a 3c 39 c0 09 3d 90 1e 0b bb 00 90 f0 37
       0.016937975 0.033630583 -0.0021227933 2.8677285e-05
000110 fd 38 04 bd 6a 04 ee 3c f8 e8 0b bc e4 b9 01 bc
       -0.03228091 0.02905484 -0.008539431 -0.007917855
000120 c4 25 2c 3c 90 77 d1 3c b0 36 c1 3c 38 e2 ae 3c
       0.010507051 0.025569707 0.023585647 0.021348104
000130 6c d0 e6 bc e0 0c 06 bd 78 63 ad 3b e9 a0 11 3d
       -0.028175555 -0.032727122 0.0052913986 0.035553847
000140 a0 db 8e bc a0 7c 72 bb fe 6d b8 3c 90 89 d9 bc
       -0.01743871 -0.0037000552 0.022513386 -0.026554853
000150 95 d3 bc bc 4e a6 e0 bc 98 3c 03 bc 6e 32 1b bc
       -0.023050109 -0.02742305 -0.008010052 -0.009472473
000160 00 9e 25 3b b2 e9 03 bd 53 03 97 bc 18 b9 0f 3c
       0.0025271177 -0.03220529 -0.018434202 0.008772157
000170 62 6a bd 3c 25 a0 bf bc f6 a5 e9 3c 42 ef 9b 3c
       0.023122016 -0.023391793 0.02852152 0.019034985
000180 20 36 69 3c 3f cc 09 bd 00 65 86 ba 8c df d9 3c
       0.014234096 -0.03364205 -0.0010253489 0.026595853
000190 be 9b e9 bc 70 50 dd bb 4e 9b d0 bc fe 03 d1 bc
       -0.028516646 -0.0067539737 -0.02546468 -0.025514599
0001a0 c4 71 0d bd 6a c6 4e bc 03 ff 89 bc ec 27 12 bd
       -0.034532323 -0.012620548 -0.016845232 -0.035682604
0001b0 20 ca c9 3c a0 20 b1 ba 60 24 ba ba 40 19 55 ba
       0.024632514 -0.0013513751 -0.0014201514 -0.0008129068
0001c0 1d d8 0b bd 82 d3 01 bd c0 2c 2f 3c 20 83 d7 ba
       -0.03414165 -0.03169585 0.010691822 -0.0016442277
0001d0 6a 37 e3 3c 2a 9e ba bc 53 28 ca bc 2c f5 b9 3c
       0.027736384 -0.022780497 -0.024677431 0.022699915
0001e0 26 7e 25 bc 30 9e 18 bb ae 2c 1f bc c8 6a d7 3c
       -0.010100877 -0.0023287646 -0.009715242 0.026296034
0001f0 c0 67 51 ba 0a a4 c7 3c 9e c1 8a bc 93 7f ed bc
       -0.0007988177 0.024370212 -0.016938027 -0.028991496
000200 0c 77 c7 bc bc b7 0b 3c 91 2f e5 bc 7c a0 02 bc
       -0.024348758 0.008527692 -0.027976783 -0.007972833
000210 54 f5 0f bd d1 ef 01 3d 80 a5 ae bc 46 7b 98 3c
       -0.035146073 0.031722847 -0.02131915 0.018613469
000220 e6 d9 1a bc 08 20 41 3c 94 47 9a bb ae 06 68 bc
       -0.009451365 0.011787422 -0.00470824 -0.014161749
000230 90 c3 3e 3b b5 54 10 bd 0c 8a cf bc 15 b5 07 3d
       0.0029108264 -0.035237033 -0.02533438 0.033131678
000240 40 f7 8b 3a a0 26 ce bc e8 79 9a 3c 03 57 cc bc
       0.0010678545 -0.025164902 0.018856958 -0.024943834
000250 f8 5b 22 3c a6 89 56 bc e0 93 d2 3b 5c b5 9d bc
       0.009909622 -0.013094341 0.0064263195 -0.019251518
000260 62 8e ed 3c 7c 1f 6f bc e0 8f 77 3b 25 3c af bc
       0.028998557 -0.014594909 0.0037774965 -0.021390984
000270 78 40 a2 bb b0 32 a4 bc 83 c1 98 bc 78 28 b0 3c
       -0.004951533 -0.020043701 -0.018646961 0.021503672
000280 97 64 0c bd d3 65 03 3d d2 40 8d 3c 28 65 81 3c
       -0.034275617 0.03207953 0.017242823 0.015795305
000290 88 7f a8 3c c0 85 b9 ba f7 bb 80 bc 8e 8b 7c bc
       0.020568624 -0.001415424 -0.015714629 -0.015414132
0002a0 4e f9 15 bc a1 e7 f9 bc ba f7 e7 bc 22 e7 df 3c
       -0.009153677 -0.030505957 -0.028316367 0.027331892
0002b0 5c 23 ca bc 9e de ce bc 0e b5 b5 3c 48 1f 09 3c
       -0.024675064 -0.025252637 0.02218106 0.008369274
0002c0 23 c8 f9 bc ca 7a 93 bc a0 50 82 bc 45 05 d3 bc
       -0.03049094 -0.018002886 -0.015907586 -0.025759349
0002d0 20 fc 54 bb ac 8f 84 3c e5 57 b0 bc 8c 68 06 bd
       -0.003249891 0.01618179 -0.021526286 -0.032814547
0002e0 ae 0c d8 3c 78 c6 a6 3c 4a e4 3b bc 5f e1 0a bd
       0.026373234 0.02035831 -0.011468003 -0.033906337
0002f0 56 5c c8 3c ae b5 f8 bc 2e 6c ff bc 2a 1b 1f bc
       0.024458092 -0.03036007 -0.031179514 -0.009711066
000300 08 6b 8f 3c 5c 04 66 bc ae 86 af 3c 68 98 af bc
       0.017507091 -0.014039125 0.021426525 -0.021434978
000310 b3 1a 0c 3d 61 7e 11 3d be f7 e3 3c d8 4a 03 bc
       0.03420515 0.035520915 0.027828094 -0.00801345
000320 26 45 5c bc 06 8e f0 3c ef 65 00 3d 3a 59 cb bc
       -0.013444221 0.029364597 0.03134721 -0.02482282
000330 a4 52 65 3c d8 68 cb bc c0 f2 84 3c 00 25 c2 b9
       0.013996754 -0.024830267 0.016229033 -0.0003703013
000340 38 db 2a bc c0 5f d0 bc 98 23 07 3c 5e 8a c9 bc
       -0.010428242 -0.025436282 0.008248232 -0.024602111
000350 62 35 8a 3c 0e db b4 bc e0 2b 9a 3c d6 6b e2 3c
       0.016871158 -0.02207711 0.01881975 0.02763931
000360 00 7a 27 3b d8 81 a9 3b da 1b b4 bc 48 19 ae 3b
       0.0025554895 0.0051729493 -0.021985937 0.0053130724
000370 38 6a 29 bc 4e e0 88 3c 3c 4e c2 bc 50 e7 7f bb
       -0.010340266 0.01670852 -0.023718946 -0.0039047785
000380 48 a2 88 3b 1a 93 b6 3c 18 77 b9 3c 37 fc 0d bd
       0.004169736 0.02228694 0.022639796 -0.03466436
000390 10 c9 b9 bc 1d 48 06 bd b0 d1 90 3b e6 c6 0d bd
       -0.022678882 -0.032783616 0.004419528 -0.034613512
0003a0 40 69 81 3a fa b8 0c bd 3a 31 e4 bc 20 45 5a bb
       0.0009873286 -0.034356095 -0.027855504 -0.0033305362
0003b0 1e ba fd bc 3e a6 ff 3c 67 d3 03 3d ae 26 e9 bc
       -0.030972537 0.0312072 0.03218403 -0.028460827
0003c0 fc 9b d0 bc 1c b1 78 3c d8 2b 68 3c 5c 77 33 bc
       -0.025465004 0.015178945 0.014170609 -0.01095375
0003d0 50 44 ba bc 80 6d 9b 39 98 c8 0e 3c c4 51 1c 3c
       -0.022737652 0.00029645488 0.008714817 0.009540979
0003e0 d0 bf 65 bb 74 48 2b 3c b0 bb 6b 3b d0 fb 28 bb
       -0.0035056956 0.010454286 0.0035970025 -0.0025784858
0003f0 ee 08 e4 bc 20 cb 91 ba d0 2f 12 bb 10 3e b2 bc
       -0.02783629 -0.0011123158 -0.002230633 -0.02175811

8 f4 [8]
000000 94 f2 77 3c a6 a5 97 3c a6 bf fd 3c 24 5a 80 3c
       0.015133519 0.018511605 0.030975174 0.015667982
000010 2e 54 ba bc 40 ab 8c 3b 23 71 ec bc 88 98 8d bb
       -0.022745218 0.0042928755 -0.028862542 -0.0043211617

9 f4 [20, 1, 7, 7]
000000 3c 4b f1 bd ee 31 67 bd 33 a4 c2 bd c0 1d 75 bb
       -0.11781928 -0.0564441 -0.09503975 -0.0037401766
000010 96 44 a5 3d 04 88 91 3d ae 42 7f bd 90 6c a5 3d
       0.08069722 0.07106021 -0.06231945 0.08077347
000020 b8 80 f5 bc d4 e6 a7 bc c8 8e a6 bd e0 85 67 3d
       -0.029968604 -0.02049581 -0.08132702 0.056524158
000030 dc 5c 83 3d 3c 09 63 3d 56 61 d8 3d ea 57 0d bd
       0.06414196 0.05542873 0.1056544 -0.03450767
000040 bb e5 0c 3e dc e4 fb bd c8 5a b9 3c 68 72 fe 3c
       0.1375951 -0.12299511 0.022626296 0.031060413
000050 a8 5d a7 3d c0 3e 1b bb 44 6f 4a 3d 00 75 c3 bd
       0.081721604 -0.0023688525 0.049422517 -0.095438
000060 00 6e 56 bd 60 51 31 bd dc 5f d1 bd 9c 44 9a bc
       -0.052350998 -0.043290496 -0.10223362 -0.018831544
000070 28 3e 2a 3d b2 ab c0 3d 17 43 9e bd 2e 67 7b bd
       0.041563183 0.09407748 -0.0772764 -0.061377697
000080 bc dd ba 3d 28 b4 31 3d 90 85 38 bc 8a 46 1e bd
       0.09124324 0.0433847 -0.0112623125 -0.03864149
000090 50 34 68 3c 50 93 49 3c 0a c9 9b bd d3 2f 08 3e
       0.0141726285 0.012303188 -0.076067045 0.13299493
0000a0 00 bb b8 3b 20 5b c6 3c 00 36 0c be 8a ce f0 3d
       0.0056375265 0.024213374 -0.13692474 0.11758144
0000b0 30 bc 13 3c 80 fd fc bc 40 16 27 bd 65 d0 03 3e
       0.009017035 -0.030882597 -0.040792704 0.12872465
0000c0 87 1f 0b be 88 46 b2 3c a8 b6 b5 3c bc b4 7d 3d
       -0.13586245 0.021762148 0.022181824 0.06193994
0000d0 60 0b 51 3c 7f 6d 03 be 30 c5 28 bc 33 68 da bd
       0.01275906 -0.12834738 -0.010300919 -0.10664406
0000e0 bc 1a a5 3d 90 e6 03 bc e8 13 bc bd 4f a1 0c 3e
       0.0806174 -0.008050576 -0.09183484 0.1373341
0000f0 ec 2c b5 3d ba 5d 11 be 70 14 e6 3c f8 45 cd bc
       0.08846459 -0.1419591 0.028085917 -0.025057778
000100 d1 9f 01 3e 20 84 2b bc f2 d2 50 bd b4 14 87 3d
       0.12658621 -0.010468513 -0.050982423 0.06595746
000110 d3 1b da bd 30 b0 42 bc 20 7c bf bb 72 b9 bb 3d
       -0.10649838 -0.011882827 -0.0058436543 0.0916623
000120 20 19 47 3c 76 be a1 3d e0 08 c1 bd b6 f9 a7 3d
       0.012151986 0.07897656 -0.09425521 0.082019255
000130 93 f8 ae bd d1 f4 0f 3e 28 44 ab 3d 22 c8 dc 3d
       -0.085435055 0.14058234 0.08362609 0.1078036
000140 30 2a 69 3d ac 50 ce 3d b4 00 7e 3d 60 18 7d bc
       0.056925 0.10073981 0.06201239 -0.015447706
000150 f4 c9 56 3d 50 dd c9 bd c4 cf 2d 3d 42 79 b7 3d
       0.05243869 -0.09856665 0.04243447 0.08958675
000160 11 8c 0d 3e 7a 4f ce bd 5c 1c d9 3d d6 59 0e be
       0.13822962 -0.10073753 0.10601112 -0.13901457
000170 0e 68 75 bd 50 70 4e 3c 2c 14 d4 bd 2e d5 f6 3d
       -0.059913687 0.01260002 -0.1035541 0.120523795
000180 de 22 e0 3d 43 5a b4 bd 9d a1 0a 3e 63 ce 04 3e
       0.109441504 -0.088062786 0.13538213 0.12969355
000190 38 ee 3c bd cc cb b4 bd 22 d0 f5 3d c8 f1 f3 3c
       -0.04612562 -0.08827934 0.12002589 0.029778376
0001a0 aa b6 cc 3d a0 2d 8c 3d 4e e6 dd 3d 66 64 03 be
       0.09995778 0.0684464 0.10834943 -0.12831268
0001b0 60 33 ba bd 32 e1 54 bd f0 01 c5 bd 20 04 42 bc
       -0.0909183 -0.051972575 -0.0961951 -0.011841804
0001c0 34 15 8d 3d f6 f2 af 3d 60 5f dc bd 2a 43 f0 bd
       0.0688881 0.08591263 -0.10760379 -0.117315605
0001d0 90 1c 01 be b6 8a d1 3d 5a a7 d7 3d 10 20 d4 3c
       -0.12608552 0.10231535 0.10529967 0.025894195
0001e0 42 76 ec 3d 00 b1 34 3d 44 43 31 3d 20 4f e3 bd
       0.115459934 0.044114113 0.04327704 -0.11099076
0001f0 2e 7f 59 bd d5 b3 05 3e b8 33 06 be f3 98 0c 3e
       -0.053099804 0.13056882 -0.13105667 0.1373022
000200 e0 bd 97 3d 54 c3 3b 3d 85 98 11 be ce 51 89 bd
       0.07409263 0.045840576 -0.14218338 -0.06705056
000210 00 82 e3 bb 68 a7 ea bd 13 6c b3 bd 0a e7 f8 bd
       -0.0069429874 -0.114577115 -0.08760848 -0.12153442
000220 55 53 aa bd 6e b5 0c bd 30 01 c2 3d 58 de b9 bd
       -0.083166756 -0.034352712 0.09472883 -0.09075612
000230 e0 b3 4f 3c 4b 00 07 3e 90 0c 98 3d 70 32 a1 3c
       0.012677163 0.13183706 0.07424271 0.01967737
000240 18 d9 1c 3d 80 d8 f3 3c 23 f4 0c 3e f8 99 8f bc
       0.038292974 0.029766321 0.13765006 -0.017529473
000250 b0 d8 dd bd 00 11 08 3a df bb 03 3e 29 28 12 3e
       -0.108323455 0.00051905215 0.12864636 0.14273132
000260 44 e7 15 3d 00 bd f4 3c ac a3 8d 3d 6b ee 09 3e
       0.036597505 0.029875278 0.069159836 0.13469855
000270 14 f6 46 3d 76 94 ea 3d 1a 50 f8 bd 3a 76 a0 bd
       0.048574522 0.11454098 -0.12124653 -0.0783505
000280 38 6e 52 3d 53 2b 98 bd 6b af 04 be a6 9c cf 3d
       0.051374644 -0.074301384 -0.12957542 0.101373
000290 12 ac 10 bd 90 75 a8 3c c8 25 92 3d fe 19 e0 3d
       -0.03532035 0.02056387 0.071361125 0.109424576
0002a0 ad 0d 12 be 28 a0 86 3d 0a 50 ca 3d f3 db a9 bd
       -0.1426303 0.06573516 0.098785475 -0.08293905
0002b0 89 38 06 3e 61 62 e5 bd 53 b2 0b 3e 6a cd f6 3d
       0.13107504 -0.11200405 0.13642244 0.120508984
0002c0 5c f7 06 3d 3d 70 03 be 4a c9 f3 bd 1a 7e 94 bd
       0.032950744 -0.12835784 -0.11903627 -0.072506145
0002d0 e8 ed ec 3c 8d 23 05 be c2 45 03 be 2e 9a 60 bd
       0.028922036 -0.13001843 -0.12819579 -0.054834537
0002e0 38 d9 a5 3c 95 dd f4 bd 42 1e 11 be 88 30 51 3d
       0.02024518 -0.11956326 -0.14171699 0.051071674
0002f0 30 1b 23 3d 88 00 a5 bd ff 81 08 3e 20 38 20 bc
       0.03982085 -0.08056742 0.1333084 -0.009779006
000300 80 5d 4e 3c b8 e1 a1 3c a8 48 d6 3c 4e 52 68 bd
       0.012595534 0.019760951 0.026157692 -0.056719117
000310 90 68 78 3c 84 a8 11 bd 78 25 cb 3d d4 a3 d6 bc
       0.015161648 -0.0355611 0.09919256 -0.026201166
000320 a0 d5 24 bd 7e 19 e7 3d bc df 83 3d c7 77 10 3e
       -0.04024279 0.11284159 0.06439158 0.14108191
000330 90 2a b8 bd e4 5e a5 bc 2a 30 2e bd c0 55 b6 3d
       -0.08992493 -0.020186849 -0.0425264 0.08903074
000340 4e 09 a2 3d 1e 0f 8b 3d 28 32 76 3d d0 be 22 3d
       0.07911931 0.06789993 0.060106426 0.039732754
000350 58 1c 20 bd a8 a9 8e 3d aa 22 c6 bd 90 75 ba 3c
       -0.03908953 0.06965953 -0.096745804 0.022761136
000360 fe af e6 3d 2c 18 85 3d 0b 0a 03 be 20 74 63 bd
       0.112640366 0.06498751 -0.127968 -0.055530667
000370 a0 cb c6 3d f4 54 75 3d b2 df 01 be 61 3f f2 bd
       0.09706807 0.05989547 -0.12682989 -0.11828495
000380 52 87 59 bd 4a d2 51 bd 90 3a 8b 3c 24 21 f1 bc
       -0.053107567 -0.051225938 0.016995698 -0.029434748
000390 ff e6 08 3e 72 d8 c8 3d 3c 45 56 bd d2 04 b3 3d
       0.13369368 0.09806909 -0.05231212 0.08741154
0003a0 55 01 9f bd 2c 67 e7 bd 61 c0 0b 3e f3 c4 da bd
       -0.07763926 -0.11298975 0.13647605 -0.10682096
0003b0 06 f7 1c bd 00 8e 84 3c a4 83 45 3d 56 68 c1 3d
       -0.038321517 0.016180992 0.048221245 0.094437286
0003c0 d5 bb 0d 3e de 3c f7 3d 90 91 11 bc 40 20 db bb
       0.13841183 0.12072156 -0.008884802 -0.006687194
0003d0 9e 86 8e 3d c3 a2 bd bd 2a 7b f0 3d f2 41 da 3d
       0.0695927 -0.0925956 0.11742242 0.10657109
0003e0 9c 4e fb bc ca 04 87 3d 32 99 46 bd 9e 74 85 bd
       -0.030677132 0.0659271 -0.048485942 -0.065163836
0003f0 67 be 03 be 08 56 9e 3c e7 10 04 be 6e 07 8a 3d
       -0.12865601 0.019328132 -0.12897073 0.06739698

10 f4 [20]
000000 b8 ec 08 bd b0 a1 4d bc 54 b5 07 3d 30 9d 9d 3c
       -0.033428878 -0.012550756 0.033131912 0.019239992
000010 7a 3e dc bd 5c 75 de bc 68 25 c5 3d f0 f3 77 3c
       -0.10754104 -0.02715557 0.09626275 0.015133843
000020 58 7f 3e 3d ea 44 a3 3d c3 97 04 3e fa dc c5 bd
       0.046508163 0.07972129 0.12948518 -0.096612886
000030 00 8d 72 3a be 89 e5 bd 24 3e 3d 3d 3c 57 39 bd
       0.0009252578 -0.11207913 0.04620184 -0.04524921
000040 2e c4 03 bd c3 40 a0 bd 9e 80 b2 bd 76 8f af 3d
       -0.032169513 -0.07824852 -0.08715938 0.08572285

11 f4 [40, 20, 5, 5]
000000 0e d6 0a bd 9f 53 0c 3d 1d 1a 06 3d f2 9a 23 bd
       -0.033895545 0.034259435 0.032739747 -0.03994269
000010 08 f2 b6 3b 67 2b b3 bc a0 9f 0a 3b f5 d4 e7 bc
       0.0055830516 -0.021871282 0.0021152273 -0.028299788
000020 8a b6 c2 3c e0 d3 9d 3b 50 a9 34 3c 30 02 3e bb
       0.023768682 0.0048165172 0.011026695 -0.0028993003
000030 1e d4 a3 3c 70 07 73 bc 82 49 c1 3c 37 0b 89 bc
       0.019998606 -0.014833316 0.023594622 -0.01672898
000040 7e ed 8c 3c 21 c7 ab bc 04 b8 2a bd ee dd 17 bd
       0.017203089 -0.020968975 -0.041679397 -0.037076883
000050 cd da 0f bd 2a 23 ee bc f6 a6 1d bd b7 96 13 3d
       -0.035120774 -0.029069502 -0.038489304 0.036032405
000060 a7 56 0c 3d 3b 8d b6 bc 3a 93 0e bd 5d 29 22 3d
       0.034262326 -0.02228414 -0.034808375 0.03959023
000070 a6 ce d6 3c 0b b7 1d 3d 45 9b 35 3d 18 2a 2f 3c
       0.026221585 0.03850464 0.04433753 0.010691188
000080 1e b9 88 bc ab a7 11 3d 16 f7 d6 3c e0 92 a2 3b
       -0.016689833 0.03556029 0.026240867 0.0049613565
000090 3d 7e 20 3d d8 72 10 bd bc b7 19 3c 0a 1b cf bc
       0.03918289 -0.035265774 0.009382185 -0.025281448
0000a0 6e 3d af bc 75 5b a4 bc 7c 77 6d 3c 60 c2 74 bb
       -0.021391597 -0.020063141 0.014493819 -0.0037347302
0000b0 23 45 10 bd 12 52 e1 bc 10 c8 0b bc a5 7c 1d 3d
       -0.035222184 -0.027504954 -0.008531585 0.03844895
0000c0 b0 10 16 bd 6e 0e e9 3c d0 f1 2f bb c2 46 8d 3c
       -0.03663701 0.028449263 -0.0026847012 0.017245654
0000d0 12 2a a0 3c 65 25 96 bc 91 76 35 bd 5e 23 d5 3c
       0.01955131 -0.018328378 -0.044302527 0.026017841
0000e0 44 2c 4c bc 32 4a c6 3c 8f 5c 34 3d f8 0b b5 bb
       -0.012461726 0.024205301 0.044033583 -0.0055251084
0000f0 80 56 69 ba 2b 8b 99 bc de 22 c1 3c 89 c8 10 3d
       -0.0008901134 -0.018743118 0.023576196 0.035347495
000100 da a3 da 3c bb 68 00 3d a3 8b 04 3d 64 22 4c 3c
       0.026689459 0.03134988 0.03235973 0.012459371
000110 80 57 3a 3c 47 7e 1c 3d 1b 5c 35 3d 7b af 97 bc
       0.011373401 0.038206365 0.04427729 -0.018516293
000120 c0 1a 21 3b ef 37 17 bd 7e ae 89 3c 64 3a 24 bd
       0.0024582595 -0.036918577 0.016806837 -0.04009475
000130 06 02 eb 3c d8 3b fe 3b 00 14 54 bb 0d bf ad bc
       0.028687488 0.007758599 -0.0032360554 -0.021209264
000140 ef 64 1b 3d 4a 2e 9c 3c d0 9c e8 bb 82 e7 b1 3c
       0.037938055 0.019065041 -0.0070987716 0.021716837
000150 66 3c b0 3c d2 d4 23 bd b8 b3 45 3c 30 12 b1 bc
       0.021513175 -0.039997883 0.012066774 -0.021615118
000160 c4 46 37 3c 00 76 d0 b8 90 0a 21 bc c1 5a 1b 3d
       0.011186305 -9.940192e-05 -0.009829178 0.037928347
000170 76 67 2a bd 20 47 f8 3b af 7f 15 3d 7a 50 97 3c
       -0.041602574 0.007576838 0.03649872 0.018470991
000180 24 e4 79 bc 49 46 82 bc 80 d0 ad bb 82 51 62 bc
       -0.015252147 -0.015902655 -0.005304396 -0.013813378
000190 c8 ea 8e bb a5 a8 13 3d dc d7 22 3c 5a 83 b8 bc
       -0.004361484 0.036049504 0.00993916 -0.02252357
0001a0 84 e0 1e bc 81 e3 2a bd 28 b3 b6 bb 9c 48 17 3c
       -0.009697083 -0.04172087 -0.0055755563 0.00923362
0001b0 88 30 bc bb 95 f5 28 3d 03 9f 29 3d 68 01 56 bc
       -0.00574309 0.04124983 0.04141141 -0.013061859
0001c0 6d c9 04 3d e0 27 a5 bb b4 11 0d 3c 45 d3 cc bc
       0.032418657 -0.005040154 0.008610178 -0.025003085
0001d0 80 b7 2c ba 1e 20 cb 3c f6 06 e9 3c 8c 82 5f bc
       -0.0006588623 0.024795588 0.028445702 -0.013641965
0001e0 5a 87 fe 3c c0 0f e4 3b 1e f7 9f bc c0 04 43 3b
       0.0310704 0.0069598854 -0.019527014 0.002975747
0001f0 bf 76 1f 3d 86 67 2d bd 00 3b fb bc 8e 35 0c bd
       0.038931604 -0.042335056 -0.030667782 -0.03423076
000200 7f 5d 34 3d 83 a1 bf bc 98 7e cd 3b f9 a2 26 bd
       0.044034477 -0.023392444 0.0062711947 -0.040682767
000210 60 7a 7a 3c f0 22 0e 3c c1 ad 19 3d 1b 51 0a 3d
       0.015287966 0.008675322 0.03751922 0.033768754
000220 5e 02 ac 3c 38 93 dc 3b 9d e2 34 3d d5 e7 10 bd
       0.020997223 0.006731417 0.044161428 -0.035377342
000230 92 f5 82 bc 14 eb 00 bd 48 d3 fc bc 4c a9 16 3c
       -0.015986238 -0.031474188 -0.030862466 0.009195637
000240 22 f1 10 bd 61 c8 8e bc a8 2a fa bb f0 ca ca 3b
       -0.035386212 -0.017429532 -0.0076344796 0.006188743
000250 f8 51 76 3c b6 0d dd 3c 02 e9 60 bc f0 95 7b bb
       0.015034191 0.026984077 -0.013727428 -0.003838893
000260 2f 1d 1a 3d 76 ea db 3c 42 cf e2 3c 5a 61 d7 3c
       0.037625488 0.026845198 0.027686719 0.026291538
000270 01 11 01 bd bf 5a 29 3d 9a 2b 98 3c 6f ce 28 3d
       -0.031510357 0.041346308 0.018575478 0.041212495
000280 f8 81 ba bc df 68 21 3d 76 36 c9 3c d6 f4 ec 3c
       -0.022767052 0.039406653 0.024562102 0.02892534
000290 c4 44 2d bc d6 56 d3 3c b5 3e d2 bc b8 2a 1d 3c
       -0.010575477 0.025798243 -0.025664667 0.0095927045
0002a0 bd 03 29 3d 48 35 25 3c a7 da 11 bd 9d d7 aa bc
       0.04126333 0.010083504 -0.035608914 -0.020854766
0002b0 5c f7 27 3c a4 5e 18 bc 88 6b 02 bc ff 05 30 3d
       0.010251846 -0.009299908 -0.007960208 0.04297447
0002c0 40 b3 3c bc 3d 4f 1a 3d 0c 9e 29 bc d8 b1 4d 3c
       -0.011517346 0.037673224 -0.010352623 0.012554608
0002d0 5c 6c 74 3c 8f d5 14 bd 2e 0b 71 bc 19 1c 1c 3d
       0.014918413 -0.036336478 -0.014712138 0.038112734
0002e0 00 f0 7a bb 22 3b f3 3c 4e bd 9b 3c c7 32 22 3d
       -0.0038290024 0.029691283 0.019011166 0.039599206
0002f0 20 b1 c9 3b d0 2c e6 bb 8f e9 03 3d 06 bf fe 3c
       0.006155148 -0.007024385 0.03220516 0.031096946
000300 70 d9 64 3b 63 aa ad bc 60 31 b0 3a 94 3c 4f 3c
       0.0034919642 -0.02119941 0.0013442449 0.01264872
000310 20 2e 60 3c 60 69 22 bd cd c1 c2 bc 00 a4 01 bd
       0.013682872 -0.039651275 -0.023774052 -0.031650543
000320 0f 79 da bc ce d3 17 bd 82 f7 94 3c a2 52 e0 bc
       -0.026669053 -0.037067227 0.018184427 -0.027383152
000330 ce a1 c5 3c 5e b3 c1 3c 18 5b ad 3b c8 8a 11 bc
       0.024125006 0.0236451 0.0052904002 -0.008883186
000340 1c c7 60 3c d8 7c 91 bb 0e 5a e3 3c fe a3 b0 bc
       0.013719346 -0.0044399314 0.027752902 -0.021562573
000350 3c a9 17 3c d7 fe 8a bc ad 50 07 3d 98 48 20 bc
       0.009256657 -0.01696722 0.033035923 -0.009782933
000360 5d 2c a1 bc 44 a2 6d bc 72 fa a6 3c e3 cf 14 bd
       -0.019674474 -0.014504019 0.020383094 -0.03633107
000370 56 69 8d 3c 3a 18 f1 3c e4 b5 5d bc c9 a9 15 bd
       0.017262142 0.029430497 -0.013532136 -0.036538873
000380 b3 12 33 3d 50 ac 6a 3c b0 26 0d bb 58 e3 92 3b
       0.043719005 0.014323309 -0.0021537952 0.004482668
000390 c4 57 3d 3c 70 13 49 3b 50 20 32 3c b0 9b 41 3b
       0.0115565695 0.0030681752 0.010871962 0.002954226
0003a0 4a da c6 3c 80 fc 91 bc e2 99 e0 3c 8c e2 26 bd
       0.02427401 -0.017820597 0.027417127 -0.040743396
0003b0 e0 98 43 3c 46 6d bd bc 8f b0 19 3d f0 46 56 bb
       0.011938304 -0.023123395 0.037521895 -0.003269609
0003c0 6d 65 da bc 35 97 91 bc ea 32 f0 3c c0 2a 9a ba
       -0.026659692 -0.017772296 0.029321153 -0.0011762008
0003d0 7e 65 1d bd 18 32 02 bc ae 9a 84 3c 10 e7 05 bc
       -0.03842687 -0.007946514 0.016187038 -0.008172765
0003e0 f6 ec 6b bc 7a 16 93 3c 42 85 a0 3c 7c 8d 14 3c
       -0.014399758 0.017955054 0.019594792 0.009066936
0003f0 26 1c 93 3c c4 c7 07 bd 9c e9 18 bd ea 35 d5 3c
       0.017957758 -0.033149496 -0.037332162 0.026026685

12 f4 [40]
000000 37 0e 28 3d 52 3c 6f bc 36 7a f0 3c 4f 92 12 3d
       0.04102918 -0.014601784 0.02935515 0.035784062
000010 10 c4 5d 3b c0 ed 65 bb 27 05 08 bd 59 ec 85 bc
       0.0033838786 -0.0035084337 -0.03320804 -0.01634805
000020 53 1a 12 3d 9c 1b 22 bc 30 60 3c 3b 12 93 02 bd
       0.035669636 -0.009894278 0.0028743856 -0.03187854
000030 34 af 4d bc 34 18 22 bd 4a 41 6a bc 67 94 25 3d
       -0.012553979 -0.039573863 -0.014297793 0.04042473
000040 6b 0d 1e bd 00 62 f3 3a 80 19 9f ba 38 4d 3f 3c
       -0.038587015 0.0018568635 -0.0012138337 0.011676125
000050 99 bd 2f 3d 6d 39 01 3d c0 e6 5b 3c ef 7b 02 bd
       0.042905424 0.031548906 0.013421714 -0.031856474
000060 3a bb ce bc 76 ca bd 3c 2c 0d 83 3c 20 a3 3d bb
       -0.025235761 0.02316783 0.015997492 -0.0028936341
000070 94 00 32 3c 8b ea 2b 3d b6 66 99 bc 30 aa d1 bb
       0.010864396 0.041971724 -0.018725734 -0.0063984618
000080 3e 71 e8 3c 28 e9 0e bc 74 af 8f bc 90 f8 4b 3b
       0.02837431 -0.008722581 -0.017539717 0.0031123497
000090 31 a7 bf bc aa af 77 bc a6 e5 18 bd 14 35 b8 bc
       -0.023395153 -0.015117565 -0.037328385 -0.022486247
