MCNN.onnx (onnx, 641348 bytes, 73 tensors)

1 f4 [16, 3, 9, 9]
0	0xbd548aff	-0.05189037
1	0x3c8374ac	0.016046844
2	0x3c459268	0.012058832
3	0x3d1fac84	0.038982883
4	0xbc6a5ef8	-0.014304869
5	0x3ba66ff0	0.005079262
6	0x3cf9b7d8	0.030483171
7	0x3d81f23b	0.0634503
8	0xbd764bb3	-0.060130786
9	0x3d565aae	0.052332573
10	0xbd544f2f	-0.051833328
11	0x3c8bfc94	0.017088212
12	0x3c2ba260	0.010475725
13	0xbcb61ade	-0.022229608
14	0xbd4c94ab	-0.04994647
15	0x3cbc3e4c	0.022978924
16	0xbae6fd40	-0.0017623082
17	0xbd1f1d18	-0.038846105
18	0x3cadc304	0.021211155
19	0x3d30bf8a	0.043151416
20	0x3cbccef0	0.023047894
21	0xbbcb7168	-0.0062085874
22	0xbd2bc858	-0.04193911
23	0x3cb31ee4	0.021865316
24	0xbd217014	-0.039413527
25	0xbd002404	-0.031284347
26	0xbd4e57e0	-0.050376773
27	0xbcd0c904	-0.025486477
28	0xbcb98868	-0.022648051
29	0x3c87974c	0.016551636
30	0x3cfd2be0	0.03090471
31	0xbb13f350	-0.0022575445
32	0xbca1795e	-0.019711193
33	0xbcfa2f52	-0.030540142
34	0xbb61cc50	-0.0034454055
35	0x3d438960	0.047738433
36	0x3d4a61a4	0.049409524
37	0x3d82de8b	0.06390103
38	0xbd0b706e	-0.03404277
39	0x3d66771a	0.056265928
40	0xbd81b14d	-0.063326456
41	0xbd58a3b4	-0.052890494
42	0x3d3a4bfa	0.045482613
43	0xbc3d8088	-0.011566289
44	0xbd81fd0c	-0.06347093
45	0x3d8282e3	0.06372621
46	0x3d319ccc	0.043362424
47	0x3d1dfce8	0.03857127
48	0x3d43cc3c	0.047802195
49	0x3cba6f78	0.02275823
50	0x3caaaac4	0.02083338
51	0x3d1484fc	0.036259636
52	0xbc2b9158	-0.010471664
53	0x3ce8fe7c	0.02844166
54	0xbcef833c	-0.029237382
55	0xbc80c898	-0.01572065
56	0x3d6de252	0.058077164
57	0xbc21e1d0	-0.009880498
58	0xbd1b4596	-0.03790816
59	0xbd2f0bc7	-0.04273584
60	0xbd4ec74a	-0.050483026
61	0xbce2b1c6	-0.02767266
62	0xbbead1f8	-0.0071661435
63	0x3cd31cbc	0.025770538
64	0x3c266fc0	0.010158479
65	0xbcffc6f6	-0.031222802
66	0xbd187008	-0.037216216
67	0xbc807d70	-0.015684813
68	0xbce594b4	-0.028025009
69	0x3caeb450	0.021326214
70	0x3d6ba422	0.057529576
71	0x3ca3f6f4	0.020015217
72	0xbcb88810	-0.022525817
73	0xbd458d68	-0.04823056
74	0xbbfb6630	-0.007672094
75	0xbc5033e4	-0.012707684
76	0x3d5e5b08	0.054286033
77	0xba6d3100	-0.0009048134
78	0xbd0c15e5	-0.034200568
79	0x3cb5ed94	0.022208013
80	0x3c8f9cec	0.01753088
81	0x3d827513	0.063699864
82	0xbd729ece	-0.05923348
83	0x3cb7b080	0.022423029
84	0xba683d80	-0.0008859262
85	0x3c1c2b20	0.009531766
86	0xbd088c96	-0.0333372
87	0xbd073893	-0.033012938
88	0xbcb3e580	-0.02196002
89	0x3d3ed444	0.04658915
90	0xbcb62e4a	-0.02223887
91	0xbd102e58	-0.035200447
92	0x3bad9540	0.005297333
93	0xbc81ee6a	-0.015860755
94	0x3c80aeec	0.01570841
95	0xbc400ffc	-0.011722561
96	0x3c91a6dc	0.01777976
97	0xbd1e8e73	-0.03871007
98	0xbcf055c4	-0.029337771
99	0x3c088fd8	0.008335076
100	0x3d76b632	0.06023235
101	0x3c805d10	0.015669376
102	0x3ceaa47c	0.028642885
103	0x3d7112e0	0.05885589
104	0x3d7cabfa	0.061687447
105	0x3cee32b0	0.029076904
106	0x3bc03d90	0.005866714
107	0x3d1c25d6	0.03812202
108	0xbb485bd0	-0.0030572303
109	0xbc42a7c8	-0.0118808225
110	0xbd695ca5	-0.05697312
111	0xbd234efa	-0.03987024
112	0x3d44246c	0.047886297
113	0x3c6e70c8	0.014553256
114	0xbd24ad96	-0.040204607
115	0xbd7505e0	-0.059820056
116	0x3cc2afc8	0.02376546
117	0xbc3c2244	-0.011482779
118	0xbcf91a98	-0.030408189
119	0x3ce7af7c	0.02828192
120	0x3d7a85a6	0.061162613
121	0xbca0dfba	-0.019637931
122	0x3ce096bc	0.027415626
123	0x3c4f7590	0.012662306
124	0x3d7df592	0.062001772
125	0xbc4dfcec	-0.012572508
126	0x3c141808	0.009038933
127	0xbd04eff1	-0.03245539
128	0x3d192a2a	0.037393726
129	0x3cb73d88	0.022368208
130	0xbc144374	-0.009049285
131	0x3c406d68	0.0117448345
132	0x3ba06240	0.004894525
133	0xbcf770b4	-0.030205108
134	0xbc8deec0	-0.017325759
135	0xbd5c3c16	-0.05376824
136	0xbccca598	-0.024981305
137	0x3d80a4a3	0.06281402
138	0x3d750764	0.0598215
139	0x3cd4cb64	0.02597589
140	0x3d480c18	0.04883966
141	0x3d7cfc4e	0.061764054
142	0xbd72a1ea	-0.059236445
143	0x3c108dd8	0.008822881
144	0xbcbf50fa	-0.023354042
145	0x3d66dcd6	0.05636295
146	0x3cf2d450	0.029642254
147	0x3d2048c2	0.039131887
148	0x3cb46038	0.022018537
149	0x3d75bfa8	0.05999723
150	0x3d435d6c	0.047696516
151	0x3d37545e	0.044758193
152	0x3bc5ee90	0.0060404018
153	0x3d0a1b30	0.033717334
154	0x3d0b713c	0.034043536
155	0xbd6d7a53	-0.057977986
156	0x3d13acd4	0.036053494
157	0xbd81a2be	-0.06329869
158	0xbd047edf	-0.032347556
159	0x3d0a82ae	0.033816032
160	0xbc8d869e	-0.017276105
161	0x3ba1e840	0.0049410164
162	0x3d3503a0	0.04419291
163	0x3d6d4d54	0.057935074
164	0x3cabba2c	0.020962797
165	0xbcc9d196	-0.024636071
166	0x3caecb14	0.02133707
167	0x3d2c4dd4	0.04206641
168	0x3b88d4a0	0.0041757375
169	0xbc8d483c	-0.017246358
170	0xbcaa2f72	-0.020774577
171	0x3d80f903	0.06297495
172	0x3d145b14	0.03621967
173	0x3a0e8700	0.00054369867
174	0xbc81a678	-0.015826449
175	0xbd7271bd	-0.0591905
176	0x3d73d3d4	0.059528187
177	0x3bd17610	0.006392248
178	0xbbf679e8	-0.0075218566
179	0x3d17bff6	0.037048303
180	0xbc22dbe8	-0.009940125
181	0xbd433120	-0.04765427
182	0xbd7caf1e	-0.061690442
183	0x3d23e8d8	0.04001698
184	0x3c7aed10	0.015315309
185	0x3ba6f720	0.0050953776
186	0xbd1b3c74	-0.03789945
187	0xbd57ecdc	-0.05271612
188	0xbd288874	-0.041145757
189	0x3cd79e40	0.026320577
190	0x3c149000	0.009067535
191	0xbd77d8bf	-0.06050944
192	0xbcc82b9e	-0.02443486
193	0xbd5c475b	-0.053778987
194	0x3d12b4a8	0.03581682
195	0x3d1b9bdc	0.037990436
196	0xbcfecc1e	-0.03110319
197	0x3ce203fc	0.02758979
198	0x3d1d0640	0.03833604
199	0x3cca5654	0.024699368
200	0xbc7c9080	-0.015415311
201	0xbcdfec6e	-0.027334418
202	0xbd40020a	-0.046876945
203	0xbd12dc2e	-0.03585451
204	0xbc746674	-0.014917005
205	0x3cff8aa0	0.031194031
206	0xbcad54c4	-0.021158583
207	0x3c7165d0	0.014733747
208	0xbcd1021c	-0.025513701
209	0xbd7c31f6	-0.061571084
210	0x3d315f70	0.043303907
211	0x3c4c5c28	0.012473144
212	0xbc26e044	-0.010185305
213	0xbd1f9d48	-0.038968354
214	0x3c6f9438	0.01462274
215	0xbd80d0a3	-0.06289794
216	0x3cd59fb0	0.026077121
217	0xbca7d1fe	-0.020485874
218	0x3c833c34	0.016019918
219	0x3d0691f8	0.03285405
220	0x3d624b48	0.055247575
221	0xbd65490f	-0.055977877
222	0xbd398014	-0.04528816
223	0x3cb78bf0	0.022405595
224	0x3d3aa0e8	0.04556361
225	0xbd42cf44	-0.047560945
226	0x3b6fa920	0.0036569312
227	0x3d1ae636	0.037817203
228	0xbd0b49f2	-0.034006067
229	0xbcec3c34	-0.0288373
230	0xbcc27340	-0.023736596
231	0xbd47f9c8	-0.048822194
232	0xbd330440	-0.043705225
233	0x3d583922	0.05278886
234	0x3d114084	0.035461918
235	0xbd7f5fc2	-0.06234718
236	0x3b4c4fc0	0.0031175464
237	0xbc04e684	-0.0081116
238	0x3d1e0faa	0.038589157
239	0xbd7a1864	-0.061058417
240	0x3b5782c0	0.003288433
241	0x3cf4bd98	0.029875562
242	0xbcc1011a	-0.023560096
243	0xbd2b9a2e	-0.041895084
244	0xbbfff318	-0.0078109615
245	0x3d3145a8	0.04327932
246	0xbd7672ac	-0.060167953
247	0x3d4ce2cc	0.050020978
248	0x3cfc9474	0.030832507
249	0xbce9bcba	-0.028532375
250	0x3d46ea44	0.048563257
251	0x3b965950	0.0045882836
252	0xbc60cf74	-0.013721336
253	0x3d1dd792	0.038535662
254	0xbcca9c30	-0.02473268
255	0xbd58cfc8	-0.05293253

2 f4 [16]
0	0x3d712ac4	0.058878675
1	0x3cb28f7c	0.021796934
2	0xbc7b0414	-0.0153207965
3	0x3c9e480c	0.019321464
4	0xbc607f80	-0.013702273
5	0x3b09f1a0	0.002104856
6	0xbcdd209a	-0.026993085
7	0x3d668cba	0.05628655
8	0x3d2df484	0.042469516
9	0xbc0a0718	-0.008424543
10	0xbd827cde	-0.06371473
11	0xbca318f2	-0.019909356
12	0x3c95110c	0.018196605
13	0x3c4fe530	0.01268892
14	0xbd0c4904	-0.03424932
15	0x3d03619c	0.03207551

3 f4 [16]
0	0x3f3d25fa	0.7388607
1	0x3e475280	0.19465065
2	0x3f071dcb	0.52779835
3	0x3f0cf2c2	0.5505792
4	0x3ec9596e	0.39326042
5	0x3e980260	0.29689312
6	0x3f0a5c96	0.54047525
7	0x3edf0f8e	0.43566555
8	0x3eff026e	0.4980654
9	0x3f2fee95	0.6872342
10	0x3f2b889d	0.6700533
11	0x3f3b270b	0.7310645
12	0x3e5b4428	0.21412718
13	0x3f12408e	0.5712975
14	0x3eb847f2	0.3599239
15	0x3f10fe53	0.5663807

4 f4 [16]
0	0x00000000	0.0
1	0x00000000	0.0
2	0x00000000	0.0
3	0x00000000	0.0
4	0x00000000	0.0
5	0x00000000	0.0
6	0x00000000	0.0
7	0x00000000	0.0
8	0x00000000	0.0
9	0x00000000	0.0
10	0x00000000	0.0
11	0x00000000	0.0
12	0x00000000	0.0
13	0x00000000	0.0
14	0x00000000	0.0
15	0x00000000	0.0

5 f4 [16]
0	0x00000000	0.0
1	0x00000000	0.0
2	0x00000000	0.0
3	0x00000000	0.0
4	0x00000000	0.0
5	0x00000000	0.0
6	0x00000000	0.0
7	0x00000000	0.0
8	0x00000000	0.0
9	0x00000000	0.0
10	0x00000000	0.0
11	0x00000000	0.0
12	0x00000000	0.0
13	0x00000000	0.0
14	0x00000000	0.0
15	0x00000000	0.0

6 f4 [16]
0	0x3f800000	1.0
1	0x3f800000	1.0
2	0x3f800000	1.0
3	0x3f800000	1.0
4	0x3f800000	1.0
5	0x3f800000	1.0
6	0x3f800000	1.0
7	0x3f800000	1.0
8	0x3f800000	1.0
9	0x3f800000	1.0
10	0x3f800000	1.0
11	0x3f800000	1.0
12	0x3f800000	1.0
13	0x3f800000	1.0
14	0x3f800000	1.0
15	0x3f800000	1.0

8 f4 [32, 16, 7, 7]
0	0xbc72e0e0	-0.014824122
1	0x3cae0e36	0.02124701
2	0x3cd36b0a	0.025807876
3	0xbc5ffe40	-0.013671458
4	0xbcaf4280	-0.021394014
5	0x3cbb7f8e	0.022887971
6	0x3cefd176	0.029274683
7	0x3cd14a8c	0.025548242
8	0xbbee4714	-0.0072716568
9	0xbcc4079a	-0.023929406
10	0xbbbde838	-0.005795505
11	0x3bc305c8	0.005951617
12	0xbc48fb98	-0.012267016
13	0xbcb77b53	-0.022397673
14	0x3c79cf98	0.015247248
15	0xbc14fc32	-0.009093331
16	0xbc8bf8e7	-0.01708646
17	0xbc0bbe12	-0.008529203
18	0xbd01370c	-0.031546637
19	0xbb572220	-0.0032826737
20	0x3c94815e	0.018128093
21	0x3d07d60b	0.03316311
22	0xbbb14248	-0.0054095127
23	0x3c78cc7c	0.015185472
24	0xbc6a641c	-0.0143060945
25	0xbc83a263	-0.016068643
26	0xbc1a89d8	-0.009432279
27	0x3ca568b2	0.020191524
28	0x3cefab86	0.029256593
29	0x3b703cf0	0.0036657415
30	0xbcda5c18	-0.026655242
31	0xbc90cc9a	-0.017675687
32	0xbce1a3be	-0.027543899
33	0xbc47877c	-0.012178298
34	0xbc10f058	-0.008846365
35	0xbc97b8e5	-0.018520782
36	0xbbed3780	-0.007239282
37	0x3c0953a4	0.008381758
38	0xbc5bc72a	-0.013414184
39	0x3cb76f6e	0.022392001
40	0xbcd28230	-0.025696844
41	0x3c7bc8c8	0.015367694
42	0xbcc1e89c	-0.023670487
43	0xbc88e20e	-0.016709354
44	0x3b037c10	0.002006296
45	0x3c460a3c	0.012087401
46	0x3b63bd60	0.0034750327
47	0x3c2c9c44	0.0105353035
48	0x3d03e3c9	0.032199655
49	0xbcaf9e50	-0.021437794
50	0x3c2cd570	0.010548934
51	0x3c8534f8	0.016260609
52	0x3b1b0a50	0.002365727
53	0x3ce71c4a	0.028211731
54	0xbcda77fc	-0.026668541
55	0xbcad9855	-0.021190802
56	0x3bc33430	0.005957149
57	0xbc1d7b2a	-0.009611884
58	0x3b325d80	0.0027216375
59	0xbbb01800	-0.005373955
60	0xbcea7475	-0.028619984
61	0xbcba05f8	-0.022707924
62	0xbb28eeb0	-0.0025777034
63	0x3bba6af0	0.0056890175
64	0xbd00d773	-0.03145547
65	0xba364880	-0.00069535524
66	0xbc2dbf58	-0.010604702
67	0x3cf849c6	0.030308615
68	0x3ce8b0c2	0.028404597
69	0x3be1d8e8	0.0068923123
70	0xbcfadf58	-0.030624077
71	0x3cfcfe92	0.030883107
72	0xbcce260c	-0.025164627
73	0x3c1273c4	0.0089387335
74	0xbcf4059a	-0.029787827
75	0x3b05d230	0.002041947
76	0x3cc223cc	0.02369871
77	0xbca799a0	-0.020458996
78	0xbc9edaec	-0.0193915
79	0xbc65a072	-0.014015304
80	0xbc1a5afc	-0.009421106
81	0xbcb673fa	-0.022272099
82	0xbce6c5dc	-0.028170519
83	0xbc17e738	-0.009271435
84	0xbb070bb0	-0.0020606332
85	0xbd0ff1f6	-0.03514286
86	0x3aa9a500	0.0012942851
87	0xbcb6047c	-0.022218935
88	0xbbd3a354	-0.006458679
89	0xbcc71998	-0.024304196
90	0x390fe100	0.00013721362
91	0xbb248920	-0.0025106147
92	0xbca0dc0a	-0.019636173
93	0x3cf476f6	0.029841881
94	0x3ca04782	0.019565348
95	0x3bd14268	0.00638609
96	0x39b3f180	0.00034321472
97	0xbbb7dc9c	-0.0056110155
98	0xbc3d1ad8	-0.011542045
99	0x3cf2e66e	0.029650893
100	0x3b89e1f0	0.004207842
101	0x3c55dfb0	0.01305382
102	0x3c827c84	0.015928514
103	0xbc2b3460	-0.010449499
104	0x3c40f670	0.011777505
105	0xbd0e65fc	-0.03476523
106	0xbca71f53	-0.020400679
107	0x3b0652a0	0.0020496026
108	0x3c463bbc	0.012099203
109	0xbb04dc60	-0.0020272955
110	0xbcc7d09a	-0.024391461
111	0xbcf5e895	-0.03001813
112	0xbbb35080	-0.005472243
113	0x3c476ae4	0.012171481
114	0x3b87f610	0.004149206
115	0xbcd1ad5c	-0.02559536
116	0x3cbcf0cc	0.02306404
117	0x3bb23f08	0.005439643
118	0xbcd994ac	-0.02656015
119	0x3bb3e998	0.005490493
120	0x3ca1b052	0.019737396
121	0xbcbad263	-0.022805398
122	0x3d07d26b	0.033159655
123	0xbd030388	-0.03198579
124	0xbcb28e70	-0.021796435
125	0xbb15d3e0	-0.0022861883
126	0x3cadd738	0.021220788
127	0x3bcc8b10	0.0062421635
128	0x3ceef1d6	0.02916805
129	0x3b1fa590	0.0024360158
130	0xbcaaf2c8	-0.02086772
131	0xbad835a0	-0.0016495474
132	0x3b8991b0	0.0041982755
133	0x3b23e420	0.00250078
134	0x3c6e9b38	0.014563374
135	0xbce3f26c	-0.027825557
136	0xba75f880	-0.00093830377
137	0x3cc37480	0.023859262
138	0x3bac3480	0.005255282
139	0x3c5d3d84	0.013503436
140	0xbcaaceee	-0.020850625
141	0x3d05abd5	0.032634575
142	0x3cbc20b0	0.022964805
143	0xbc9ecf45	-0.019385943
144	0x3c3b3884	0.011427049
145	0x3bb76c90	0.0055976585
146	0xbcc47863	-0.023983186
147	0x3c80a3ea	0.01570316
148	0x3cf161a2	0.0294655
149	0x3d02c989	0.03193048
150	0xbbe8ae48	-0.007100854
151	0xbd0763d3	-0.033054184
152	0xbbb52db0	-0.005529128
153	0x3cab7128	0.02092798
154	0xbc0f768a	-0.008756289
155	0x3c55b500	0.013043642
156	0xbae373c0	-0.0017353222
157	0x3c739e68	0.01486931
158	0xbcafbe3c	-0.021453016
159	0xbcb92cde	-0.022604402
160	0xbc91f663	-0.017817682
161	0x3d113c09	0.035457645
162	0x3cc3246e	0.023821082
163	0xbc3eb25c	-0.011639204
164	0x3d074341	0.033023123
165	0x3bb38958	0.005479019
166	0xbba12c38	-0.0049186014
167	0xbc62ed78	-0.013850562
168	0xbc0a6100	-0.008445978
169	0xbcb001ba	-0.021485198
170	0xbb8cc9b0	-0.004296504
171	0xbcfda9d5	-0.030964771
172	0xbcb73a95	-0.022366801
173	0x3c8c8a90	0.017155915
174	0x3ce7b77a	0.02828573
175	0x3b5c8390	0.0033647753
176	0x3b143c50	0.0022618957
177	0x3bf3b2c8	0.007437084
178	0x3d10e23f	0.035372015
179	0x3bc27200	0.005934
180	0x3a969620	0.0011488833
181	0x3c16b884	0.009199265
182	0xbbb170c0	-0.005415052
183	0x3cb1dd2a	0.021711905
184	0xbb984f64	-0.004648136
185	0x3d0fa7db	0.03507219
186	0xbc184586	-0.009293919
187	0x3c1474b0	0.009061024
188	0xbc8110fc	-0.01575517
189	0xbc274260	-0.010208696
190	0x3c7ce250	0.0154348165
191	0x3c9cd2f8	0.019143566
192	0x3ca8ac00	0.020589828
193	0x3d03db77	0.03219172
194	0xbc8e4f4c	-0.017371796
195	0xbd07b506	-0.03313162
196	0x3cf6220a	0.030045528
197	0x3cde519e	0.027138527
198	0xbc23529c	-0.009968426
199	0x3c80f9da	0.015744139
200	0xbbd2cbf8	-0.0064330064
201	0x3c3951c8	0.011311002
202	0x3ca48ea2	0.020087544
203	0x3cc59360	0.024118125
204	0x3b214f00	0.0024613738
205	0xbb38d910	-0.0028205551
206	0x3bf733f0	0.007544033
207	0xbcf76b0c	-0.030202411
208	0xbb710510	-0.00367767
209	0xbb5a1cb0	-0.003328126
210	0x3c134264	0.008987997
211	0x3ce9dc5e	0.028547462
212	0xba010fc0	-0.00049233064
213	0x3c4eb868	0.012617208
214	0x3cf73146	0.030174863
215	0xba81a600	-0.0009891391
216	0xbca632e8	-0.020287946
217	0x3d023121	0.031785134
218	0x3cfd080a	0.030887622
219	0xbce4fb28	-0.027951792
220	0x3c28ffe0	0.010314912
221	0x3d0ffc73	0.035152864
222	0x3c9ac656	0.018893402
223	0xbc821883	-0.015880829
224	0xbca4287c	-0.020038836
225	0x3d01639b	0.03158913
226	0x3cb34830	0.021885008
227	0x3d08f14f	0.033433255
228	0xbb9510d4	-0.004549125
229	0xbc9c243e	-0.01906025
230	0x3b588420	0.0033037737
231	0x3ca26ae2	0.019826356
232	0x3c4a45c8	0.012345739
233	0xbc11ed72	-0.008906709
234	0xbc8d1cd7	-0.017225666
235	0xbbbd3648	-0.005774293
236	0xbccfbe68	-0.025359347
237	0xbd041c0c	-0.03225331
238	0xbcbabeba	-0.022796024
239	0xbcc32ba3	-0.023824519
240	0xbcbd63ae	-0.02311882
241	0xbab7b600	-0.0014016032
242	0x3c2b8924	0.010469709
243	0x3c3e889c	0.01162925
244	0xbbf5361c	-0.007483257
245	0xbb878418	-0.00413562
246	0x3d00f833	0.0314867
247	0x3cbf4d60	0.023352325
248	0xbc9ce285	-0.019150982
249	0x3ccc5a98	0.024945542
250	0x3d1079f5	0.035272557
251	0xbc69ff92	-0.014282124
252	0x3cc59f8e	0.024123933
253	0x3c1b7268	0.009487726
254	0xbce219f5	-0.027600268
255	0x3c748844	0.014925066

9 f4 [32]
0	0xbc16bc78	-0.009200208
1	0x3c9c814e	0.019104626
2	0xbced353e	-0.028956052
3	0x3bd85b20	0.00660266
4	0xbb71d020	-0.0036897734
5	0x3c8c97bc	0.017162196
6	0x3cac9206	0.021065723
7	0xbc2d9bee	-0.010596259
8	0xbc01e50a	-0.007928142
9	0x3b9dd6f8	0.004816886
10	0x3ca386b0	0.019961685
11	0x3c4776a4	0.012174282
12	0x3cc94fa8	0.024574116
13	0x3cbe866a	0.023257453
14	0x3b8fab38	0.0043844245
15	0x3beec5c0	0.007286757
16	0x3cd6ca6c	0.02621957
17	0x39395000	0.00017672777
18	0x3c2dfae4	0.010618899
19	0x3c28675c	0.010278549
20	0x3cbaef08	0.022819057
21	0xbcf45cba	-0.029829372
22	0x3c77d57c	0.015126582
23	0x3c32ce30	0.010913417
24	0x3a8cc1c0	0.0010738894
25	0x3c6cc71c	0.014451768
26	0x3abf8c40	0.0014613941
27	0x3caf23e0	0.021379411
28	0x3c6c4664	0.014421079
29	0xbbbd5cc0	-0.005778879
30	0x3c0532dc	0.008129802
31	0xbcd6156c	-0.026133262

10 f4 [32]
0	0x3f03df7e	0.51512897
1	0x3f73ce52	0.95236695
2	0x3f326033	0.6967804
3	0x3ee1d7dc	0.4411
4	0x3eb31a48	0.34980989
5	0x3f6bc68c	0.92099833
6	0x3f6e8507	0.93171734
7	0x3f5e00d6	0.86720026
8	0x3f5e01b6	0.8672136
9	0x3f39fbd8	0.7264991
10	0x3dcd1bd0	0.100150704
11	0x3e652db8	0.22380722
12	0x3f4fa1b5	0.8110612
13	0x3f06d6fc	0.5267179
14	0x3ed48586	0.4150812
15	0x3f746be3	0.9547712
16	0x3f521e41	0.82077414
17	0x3eed33d4	0.46328604
18	0x3db31eb8	0.087460935
19	0x3e6c3dd8	0.23070467
20	0x3e8de658	0.277148
21	0x3f606d87	0.87667125
22	0x3f48e3fe	0.7847289
23	0x3f3b2bd0	0.7311373
24	0x3f7e8e15	0.9943555
25	0x3ecac94c	0.39606702
26	0x3e5cf19c	0.21576542
27	0x3f664e68	0.8996339
28	0x3ee5172a	0.44744235
29	0x3ea93722	0.33049875
30	0x3f153622	0.58285725
31	0x3edcdd18	0.4313743

11 f4 [32]
0	0x00000000	0.0
1	0x00000000	0.0
2	0x00000000	0.0
3	0x00000000	0.0
4	0x00000000	0.0
5	0x00000000	0.0
6	0x00000000	0.0
7	0x00000000	0.0
8	0x00000000	0.0
9	0x00000000	0.0
10	0x00000000	0.0
11	0x00000000	0.0
12	0x00000000	0.0
13	0x00000000	0.0
14	0x00000000	0.0
15	0x00000000	0.0
16	0x00000000	0.0
17	0x00000000	0.0
18	0x00000000	0.0
19	0x00000000	0.0
20	0x00000000	0.0
21	0x00000000	0.0
22	0x00000000	0.0
23	0x00000000	0.0
24	0x00000000	0.0
25	0x00000000	0.0
26	0x00000000	0.0
27	0x00000000	0.0
28	0x00000000	0.0
29	0x00000000	0.0
30	0x00000000	0.0
31	0x00000000	0.0

12 f4 [32]
0	0x00000000	0.0
1	0x00000000	0.0
2	0x00000000	0.0
3	0x00000000	0.0
4	0x00000000	0.0
5	0x00000000	0.0
6	0x00000000	0.0
7	0x00000000	0.0
8	0x00000000	0.0
9	0x00000000	0.0
10	0x00000000	0.0
11	0x00000000	0.0
12	0x00000000	0.0
13	0x00000000	0.0
14	0x00000000	0.0
15	0x00000000	0.0
16	0x00000000	0.0
17	0x00000000	0.0
18	0x00000000	0.0
19	0x00000000	0.0
20	0x00000000	0.0
21	0x00000000	0.0
22	0x00000000	0.0
23	0x00000000	0.0
24	0x00000000	0.0
25	0x00000000	0.0
26	0x00000000	0.0
27	0x00000000	0.0
28	0x00000000	0.0
29	0x00000000	0.0
30	0x00000000	0.0
31	0x00000000	0.0

13 f4 [32]
0	0x3f800000	1.0
1	0x3f800000	1.0
2	0x3f800000	1.0
3	0x3f800000	1.0
4	0x3f800000	1.0
5	0x3f800000	1.0
6	0x3f800000	1.0
7	0x3f800000	1.0
8	0x3f800000	1.0
9	0x3f800000	1.0
10	0x3f800000	1.0
11	0x3f800000	1.0
12	0x3f800000	1.0
13	0x3f800000	1.0
14	0x3f800000	1.0
15	0x3f800000	1.0
16	0x3f800000	1.0
17	0x3f800000	1.0
18	0x3f800000	1.0
19	0x3f800000	1.0
20	0x3f800000	1.0
21	0x3f800000	1.0
22	0x3f800000	1.0
23	0x3f800000	1.0
24	0x3f800000	1.0
25	0x3f800000	1.0
26	0x3f800000	1.0
27	0x3f800000	1.0
28	0x3f800000	1.0
29	0x3f800000	1.0
30	0x3f800000	1.0
31	0x3f800000	1.0

15 f4 [16, 32, 7, 7]
0	0x3c1907bc	0.009340223
1	0xbc98e848	-0.018665448
2	0xbb72dbf8	-0.003705738
3	0x3cac1890	0.021007806
4	0x3b8140c8	0.00394449
5	0xbbcbfe5c	-0.0062253904
6	0xbc6737f9	-0.014112466
7	0xbb316660	-0.0027069077
8	0xbcaa3ca7	-0.020780874
9	0xbb8b2584	-0.0042464156
10	0x3c6ed858	0.014577948
11	0x3c8cebbe	0.017202254
12	0x3cba4e42	0.022742394
13	0x3ca2333e	0.019799825
14	0x3bf15f98	0.007366132
15	0xbbba9224	-0.005693691
16	0x3b7e5078	0.0038805287
17	0x388d7f00	6.7470595e-05
18	0xbc943b8b	-0.018094799
19	0xbc94826b	-0.018128594
20	0xbcb27fe0	-0.021789491
21	0x3c7ea380	0.015541911
22	0x3ccc6748	0.024951592
23	0xbcc36588	-0.023852125
24	0x3cc2fe06	0.023802768
25	0x3ca17996	0.019711297
26	0xbc92a40f	-0.017900495
27	0xbc0b3f26	-0.0084989425
28	0x3c7a7fd8	0.015289269
29	0xbbe36910	-0.0069400147
30	0x3bf22c48	0.0073905326
31	0x3c8e2a00	0.017354012
32	0x3c0feb10	0.008784071
33	0xbbe29b6c	-0.0069155004
34	0xbc92b7ef	-0.017909972
35	0x3b5995c8	0.003320085
36	0xba6bbac0	-0.00089923665
37	0x3ccc8a3a	0.024968255
38	0xbc161274	-0.009159673
39	0xbc18028a	-0.009277949
40	0xbc70d59d	-0.014699367
41	0x3c107618	0.008817218
42	0xbc1c27be	-0.00953096
43	0xbc22e3bb	-0.0099419905
44	0xb8f4a500	-0.0001166556
45	0xbb181650	-0.0023206659
46	0xbc928274	-0.01788447
47	0x3c4ed4ac	0.012623947
48	0xbbe331a0	-0.006933406
49	0xbcb48a66	-0.02203865
50	0xb94ea980	-0.00019708835
51	0x3c5e753c	0.013577756
52	0xbc6dc4b9	-0.014512234
53	0xbb3d7f10	-0.0028914846
54	0xbc039ff2	-0.008033739
55	0xbc9459d6	-0.018109243
56	0xbc9a329c	-0.01882296
57	0xbc6297cc	-0.0138301365
58	0xbc642120	-0.013923913
59	0x3aca02f0	0.0015412252
60	0xbc921138	-0.017830476
61	0x3ca638f0	0.020290822
62	0x3c274dc8	0.010211416
63	0x3be6ef38	0.00704756
64	0xbb27dec8	-0.0025614966
65	0xbcba2210	-0.02272132
66	0x3ccb12e6	0.024789285
67	0xbcbae3f2	-0.02281377
68	0x3afa1e70	0.0019082557
69	0xbcba935d	-0.022775346
70	0x3b0ec4d8	0.0021784808
71	0x3c2c551c	0.0105183385
72	0xbcbe021f	-0.02319437
73	0xbcb537d9	-0.022121357
74	0xbcbf8e93	-0.023383414
75	0xbcc622c9	-0.024186509
76	0xbbf50320	-0.007477179
77	0x3c83756c	0.016047202
78	0xbcacf86c	-0.02111455
79	0xbb8cf28c	-0.004301375
80	0x3b43f8e0	0.002990298
81	0x3ccb9cbc	0.02485501
82	0xbba9e9ac	-0.0051853266
83	0x3c8c73e2	0.017145101
84	0x3c29156c	0.010320049
85	0xbcc5150b	-0.024057886
86	0x3bd845e8	0.0066001303
87	0xbca2d6d6	-0.019877832
88	0x39bf71c0	0.0003651511
89	0xbca9d51e	-0.020731505
90	0x3c2a967c	0.010411855
91	0xbbca9a30	-0.0061829314
92	0x3cab7f8a	0.020934839
93	0xbca79928	-0.020458773
94	0xbc84ed36	-0.016226392
95	0xbc947cc8	-0.018125907
96	0x3b06f0f0	0.0020590387
97	0x3bb52c78	0.0055289827
98	0xbc561cf6	-0.013068428
99	0xbc90d485	-0.017679462
100	0x3b77a8f8	0.0037789922
101	0xbc59ff37	-0.013305477
102	0xbca14e28	-0.019690588
103	0xbcb00872	-0.021488402
104	0xbc0352e0	-0.008015364
105	0xbcce101e	-0.02515417
106	0x3ba3943c	0.004992036
107	0xbc86bd96	-0.016447823
108	0x3cb2824a	0.021790642
109	0x3c27b220	0.010235339
110	0xbb40ca80	-0.0029417574
111	0xbc6bbc2e	-0.014388127
112	0xbc7f7616	-0.015592119
113	0x3c0ba2f0	0.008522734
114	0x3c5a43ac	0.013321798
115	0x3cc6aa96	0.024251264
116	0xbc594f22	-0.013263496
117	0x3c892a3a	0.016743768
118	0x396ee100	0.00022781268
119	0xbc5d813e	-0.013519583
120	0x3ca5074c	0.020145081
121	0xbb66f0b0	-0.0035238676
122	0x3c74fb20	0.014952451
123	0x3c8417ec	0.016124688
124	0xbcba1338	-0.022714242
125	0xbc208012	-0.009796159
126	0x3ac7ae60	0.0015234463
127	0xba8f18b0	-0.0010917392
128	0x3c608be0	0.013705224
129	0x3b939574	0.0045039
130	0x3c99277c	0.018695585
131	0x3b096230	0.0020963065
132	0x3bc95258	0.0061438493
133	0x3c10028c	0.00878967
134	0xbc045fa4	-0.008079443
135	0xbcc68219	-0.024231957
136	0x3c50dbb4	0.012747694
137	0x3c7118c0	0.0147153735
138	0xbc197bc0	-0.009367883
139	0xbcc8c0d6	-0.024506014
140	0xbb7a35c8	-0.0038179029
141	0x3ca1894a	0.019718785
142	0xbc0e6dd2	-0.008693175
143	0xbbeecf24	-0.0072878767
144	0xbc9b6186	-0.018967401
145	0x3aa46900	0.00125435
146	0x3ca8d4fa	0.020609368
147	0x3c3bb1d8	0.0114559755
148	0x3cb74c48	0.02237524
149	0x3c88a7ca	0.01668157
150	0xbcbe6d1a	-0.023245383
151	0x3ca40d08	0.020025745
152	0xba648da0	-0.00087186135
153	0x3cb8815c	0.02252262
154	0x3c2af10c	0.010433447
155	0xbc02c51c	-0.007981565
156	0x3bdac5a0	0.0066763908
157	0x3c88e218	0.016709372
158	0xbc82de71	-0.015975209
159	0x3b2ff570	0.0026849173
160	0x3c3d40cc	0.011551093
161	0xbcc2c4b5	-0.023775438
162	0xbb3104b8	-0.002701087
163	0xbb7e75d8	-0.0038827565
164	0x3bcb7bb0	0.006209813
165	0x3bfef088	0.0077801384
166	0xbc45e423	-0.012078318
167	0xbca03f84	-0.019561537
168	0xb6754000	-3.6545098e-06
169	0x3b428500	0.0029681325
170	0xbc9d4d4a	-0.019201893
171	0x3cbfe13a	0.023422826
172	0xbcc27a56	-0.023739975
173	0x3c5b0dec	0.013370018
174	0x3c888068	0.016662791
175	0xbbc46d98	-0.00599451
176	0xbc06ccd8	-0.0082275495
177	0x3cc2eb98	0.02379398
178	0xbc4e69a3	-0.012598428
179	0xb9168900	-0.00014356151
180	0x3b4d7630	0.0031350963
181	0xbca2d72a	-0.019877989
182	0x3cb36f0e	0.021903541
183	0xbb8ceb48	-0.0043005086
184	0xbb171d80	-0.0023058355
185	0xbccb9366	-0.024850558
186	0xbcb85865	-0.022503087
187	0x3a57c400	0.00082308054
188	0xbcad76cb	-0.021174809
189	0x3c853cd0	0.01626435
190	0x3bcfcd80	0.006341636
191	0x3c593c88	0.013259061
192	0x3b904258	0.00440244
193	0x3b38a920	0.0028176978
194	0x3cbc5fa0	0.022994816
195	0x3c7577ec	0.014982205
196	0xbc328768	-0.010896541
197	0xbb9ba600	-0.0047500134
198	0xbcb91d63	-0.02259702
199	0xbc5c1538	-0.013432793
200	0x3cc56286	0.024094831
201	0xbc97568f	-0.018473892
202	0x3beb7518	0.0071855895
203	0xbb2a45d0	-0.0025981553
204	0x3acfa880	0.0015843064
205	0xbb975058	-0.004617732
206	0x3b812a3c	0.0039418023
207	0xbc86ee70	-0.016471118
208	0x3cc9629c	0.024583153
209	0x3bd33698	0.006445717
210	0x3b762610	0.0037559308
211	0xbaa3e940	-0.0012505427
212	0xbad86190	-0.0016508568
213	0xbc592f5a	-0.013255918
214	0xbc5d6971	-0.013513909
215	0xbc0cf6e8	-0.008603789
216	0xbcb2b5ad	-0.021815145
217	0xbc25af4f	-0.010112598
218	0x3cb292a6	0.021798443
219	0xbcccbd38	-0.02499257
220	0x3c8c51fe	0.01712894
221	0xbc47525a	-0.01216563
222	0xbae79300	-0.0017667711
223	0xbca9d27f	-0.020730255
224	0x3cbd2f6e	0.023093905
225	0xbc6ac56a	-0.014329294
226	0xbca8185e	-0.020519432
227	0x3c92c7ee	0.0179176
228	0x3ad49680	0.0016219169
229	0x3c5d9448	0.013524123
230	0x3caf47b8	0.021396503
231	0x3ca80eba	0.020514835
232	0xbbd496e8	-0.006487716
233	0xbc812547	-0.015764846
234	0xbc77d12e	-0.015125556
235	0x3cc5d318	0.024148509
236	0xbc38154c	-0.011235546
237	0xbbf446f0	-0.0074547455
238	0x3ae61bc0	0.0017555878
239	0x3c6a9638	0.0143180415
240	0xbc96e07d	-0.018417591
241	0x3bc84638	0.0061118864
242	0x3c6be338	0.014397435
243	0xbbbe0438	-0.0057988428
244	0xbc72d5d3	-0.0148214875
245	0xbcaacdeb	-0.020850142
246	0xbc3ed4cc	-0.011647414
247	0x3ca054e8	0.019571736
248	0x3b4abbf8	0.0030934792
249	0xbb91bdd0	-0.0044476762
250	0xbbba61d8	-0.0056879334
251	0x3c8813fe	0.016611096
252	0xbcb8d1dc	-0.022561006
253	0xbc2d910a	-0.010593662
254	0x3c0e4080	0.00868237
255	0x3a6e1be0	0.0009083133

16 f4 [16]
0	0x3b86ae58	0.004110139
1	0xbcc456c9	-0.023967164
2	0xbcae1c0c	-0.021253608
3	0xbc6ce838	-0.014459662
4	0x3c4e7244	0.012600485
5	0x393c1e80	0.0001794044
6	0x3c1f7578	0.009732597
7	0x3cb86d48	0.022513047
8	0x39fbaa00	0.0004800111
9	0xbc0a6ec0	-0.008449256
10	0x3c04052c	0.008057874
11	0xbc759370	-0.014988765
12	0x3c1c83a4	0.00955287
13	0xba498040	-0.0007686652
14	0x3b345f70	0.0027522705
15	0xba62dee0	-0.0008654427

17 f4 [16]
0	0x3f6e7c40	0.9315834
1	0x3f07ea72	0.5309211
2	0x3f60505f	0.87622637
3	0x3e190b34	0.1494568
4	0x3f142ffd	0.57885724
5	0x3cae2400	0.0212574
6	0x3f5075c2	0.81429684
7	0x3e2a326c	0.16620797
8	0x3f40fae7	0.75382847
9	0x3f4f43dc	0.8096292
10	0x3efe369e	0.49651045
11	0x3e866fac	0.26257074
12	0x3eecd372	0.4625507
13	0x3db033f8	0.08603662
14	0x3d6e97c0	0.05825019
15	0x3e59f208	0.21283734

18 f4 [16]
0	0x00000000	0.0
1	0x00000000	0.0
2	0x00000000	0.0
3	0x00000000	0.0
4	0x00000000	0.0
5	0x00000000	0.0
6	0x00000000	0.0
7	0x00000000	0.0
8	0x00000000	0.0
9	0x00000000	0.0
10	0x00000000	0.0
11	0x00000000	0.0
12	0x00000000	0.0
13	0x00000000	0.0
14	0x00000000	0.0
15	0x00000000	0.0

19 f4 [16]
0	0x00000000	0.0
1	0x00000000	0.0
2	0x00000000	0.0
3	0x00000000	0.0
4	0x00000000	0.0
5	0x00000000	0.0
6	0x00000000	0.0
7	0x00000000	0.0
8	0x00000000	0.0
9	0x00000000	0.0
10	0x00000000	0.0
11	0x00000000	0.0
12	0x00000000	0.0
13	0x00000000	0.0
14	0x00000000	0.0
15	0x00000000	0.0

20 f4 [16]
0	0x3f800000	1.0
1	0x3f800000	1.0
2	0x3f800000	1.0
3	0x3f800000	1.0
4	0x3f800000	1.0
5	0x3f800000	1.0
6	0x3f800000	1.0
7	0x3f800000	1.0
8	0x3f800000	1.0
9	0x3f800000	1.0
10	0x3f800000	1.0
11	0x3f800000	1.0
12	0x3f800000	1.0
13	0x3f800000	1.0
14	0x3f800000	1.0
15	0x3f800000	1.0

22 f4 [8, 16, 7, 7]
0	0xbc929afa	-0.017896164
1	0xbcbf04e0	-0.023317754
2	0xbd02c103	-0.03192235
3	0x3c1c4348	0.0095375255
4	0xb9ef7100	-0.00045669824
5	0xbd095718	-0.033530325
6	0x3cc1d508	0.023661152
7	0x3ac40da0	0.0014957674
8	0x3cc17798	0.023616597
9	0xbc01432e	-0.007889552
10	0xbc73892e	-0.014864249
11	0xbbe0e5c8	-0.0068633296
12	0xbcb5e675	-0.022204617
13	0xbd09a18e	-0.033601336
14	0xbb693280	-0.003558308
15	0x3aa01e60	0.0012216084
16	0x3b860d80	0.004090965
17	0xbcf8690c	-0.030323528
18	0x3b2dd860	0.0026526675
19	0xba021a40	-0.0004963018
20	0xbc7da6c6	-0.015481656
21	0xbc850057	-0.016235514
22	0xbce287cc	-0.027652644
23	0xbc7379aa	-0.01486055
24	0xbce5609c	-0.028000169
25	0x3cd12a5c	0.025532894
26	0x3c48379c	0.01222029
27	0xbcebeaae	-0.028798427
28	0x3cc8fe78	0.024535403
29	0x3c2b5e04	0.010459427
30	0xbc2fe778	-0.010736339
31	0x3d10eb7f	0.035380837
32	0xbbe43b38	-0.0069650672
33	0x3cafc538	0.021456346
34	0xba654880	-0.000874646
35	0x3cded95a	0.02720325
36	0xbd0717cb	-0.032981675
37	0x3caa3ed2	0.020781908
38	0x3cd5f59c	0.026118092
39	0xbc2877b8	-0.010282449
40	0xbbbd2788	-0.0057725348
41	0x3bac1b30	0.0052522644
42	0x3bc7a4a0	0.006092623
43	0xbd1044c3	-0.035221826
44	0x3c7d3ed0	0.01545687
45	0x3b98a3b0	0.004658185
46	0x3ca65c02	0.020307545
47	0xbd0a4df6	-0.033765756
48	0xbc8a7f43	-0.016906386
49	0xbcf48f33	-0.029853439
50	0x3c6ba4d4	0.01438256
51	0x3c65f93c	0.014036473
52	0x3beee0b0	0.0072899684
53	0x3b41cc60	0.002957128
54	0x3b9339f8	0.0044929944
55	0xbcb2e320	-0.021836817
56	0x3b2847d0	0.002567757
57	0xbc807d73	-0.015684819
58	0x3cbf88fc	0.023380749
59	0xbc8b41cc	-0.016999148
60	0x3c8a3f20	0.016875803
61	0xbceeea78	-0.029164538
62	0x3d0328e1	0.032021407
63	0x3cf7bb76	0.030240756
64	0x3ae9e340	0.0017844215
65	0x3cfc3966	0.030789088
66	0x3bcfaca0	0.006337717
67	0x3c3fe514	0.011712331
68	0xbd009c46	-0.031399034
69	0xbc4032f2	-0.011730896
70	0x3d095e49	0.033537183
71	0x3c224554	0.009904224
72	0xbcee7cc8	-0.029112235
73	0x3cd3353e	0.025782224
74	0xbceca3b8	-0.028886661
75	0x3ce4687a	0.02788185
76	0x3cdee5aa	0.027209122
77	0x3d081d79	0.033231232
78	0x3d00b2ff	0.031420704
79	0xbc074918	-0.008257173
80	0x3c7f361c	0.0155768655
81	0xbc108300	-0.008820295
82	0x3ce02426	0.027360987
83	0x3c66205c	0.014045801
84	0x3d0e556b	0.03474943
85	0x3c652f04	0.01398826
86	0xbc857b7e	-0.016294237
87	0x3b940130	0.004516743
88	0xbce2ba0a	-0.027676601
89	0x3cddcbe6	0.027074765
90	0x3c266e34	0.01015811
91	0xbc74954e	-0.014928175
92	0xbbd7cdc8	-0.0065858103
93	0xbcb71d55	-0.022352854
94	0x3c7253c8	0.014790483
95	0x3cad553c	0.021158807
96	0xbc838a47	-0.016057147
97	0xbccf2703	-0.025287157
98	0xbcf4b24a	-0.029870171
99	0x3cac58ae	0.02103838
100	0x3c972046	0.018448006
101	0xbd09803f	-0.03356957
102	0x3b39db20	0.0028359368
103	0x3bea41d0	0.0071489587
104	0x3c1b9fd4	0.009498555
105	0xbc774f66	-0.015094614
106	0x3c5a5930	0.013326928
107	0xbc410f92	-0.011783497
108	0x3cdc434e	0.026887562
109	0xbcb53a7e	-0.022122618
110	0x3b461700	0.0030226111
111	0xbcd5b565	-0.026087472
112	0x3bd933f8	0.0066285096
113	0xbc682f80	-0.014171481
114	0xbca960da	-0.020676065
115	0x3b9ac810	0.0047235563
116	0x3cf60d7e	0.03003573
117	0x3ce8ef2e	0.028434362
118	0x3cb68966	0.022282314
119	0x3d0ee9f5	0.034891088
120	0xbcf59168	-0.029976562
121	0xbce23a30	-0.027615637
122	0x3b88e7f8	0.0041780435
123	0x3ca264a8	0.019823387
124	0x3d00144d	0.03126936
125	0x3a648400	0.00087171793
126	0x3c7c0c64	0.0153838135
127	0xbce7a8fc	-0.02827882
128	0x3cf22a4e	0.029561188
129	0x3c058634	0.008149672
130	0xbcf29343	-0.029611235
131	0xbc167766	-0.00918374
132	0x3ce2d722	0.027690474
133	0x3c96844e	0.018373635
134	0x3c5bdf74	0.013419975
135	0x3c926608	0.017870918
136	0xbc91c3fe	-0.017793652
137	0x3ca21610	0.01978591
138	0x3c849c54	0.016187824
139	0xbca62f1c	-0.020286135
140	0xbc47f9ca	-0.01220555
141	0x3ad73060	0.0016417615
142	0xbd0e1e3c	-0.034696802
143	0xbc6acf3c	-0.014331635
144	0xbc0d13c0	-0.008610666
145	0xbc94cfa7	-0.018165423
146	0xbd01c7c4	-0.031684652
147	0x3cfb7726	0.030696463
148	0x3d05ed7b	0.032697182
149	0xbb3d0f10	-0.002884809
150	0xbcf4bac3	-0.029874211
151	0x3d02925b	0.031877857
152	0xbd0b81d0	-0.034059346
153	0x3cc1ef6a	0.023673732
154	0x37c6d000	2.3700297e-05
155	0xbc487b46	-0.012236422
156	0x3cb43f3c	0.022002809
157	0xbc31c066	-0.010849094
158	0xbc561920	-0.013067514
159	0xbc95f07a	-0.018303145
160	0x3bb01bf0	0.005374424
161	0x3c1e8ca8	0.00967709
162	0xbb446d60	-0.002997242
163	0x3d0f66d3	0.03501017
164	0x3c343f08	0.011001356
165	0xbb581620	-0.0032972172
166	0xbce2a6a3	-0.02766735
167	0x3cd79b06	0.026319038
168	0x3c271ff0	0.010200486
169	0xbc8c5ddc	-0.0171346
170	0x3aa578a0	0.001262445
171	0x3d04fcbf	0.0324676
172	0x3ceeda1e	0.02915674
173	0x3c8e8680	0.017398119
174	0xbc1622ae	-0.009163542
175	0x3bc48708	0.0059975423
176	0xbd0b400c	-0.033996627
177	0x3c007064	0.007839296
178	0xbc87b905	-0.016567716
179	0x3bce7cc8	0.006301496
180	0x3bd08580	0.0063635707
181	0xbacd4860	-0.0015661828
182	0x3d108933	0.035287093
183	0xbb779a00	-0.0037781
184	0x3cacafc0	0.021079898
185	0xbb04bab0	-0.0020252876
186	0x3cc722aa	0.024308521
187	0x3d0a5cab	0.03377978
188	0x3c4c4420	0.012467414
189	0x3a8874a0	0.0010410734
190	0xbca50588	-0.020144239
191	0xbc511520	-0.012761384
192	0xbcc2842a	-0.023744661
193	0xbd01c1ee	-0.031679086
194	0xbcc334ea	-0.023828942
195	0x3cac2abe	0.021016475
196	0x3cbff882	0.023433927
197	0xbd07675a	-0.033057548
198	0xbcef2c2a	-0.029195864
199	0xbbc99e48	-0.006152902
200	0x3cd1da32	0.025616739
201	0x3c0f73f0	0.008755669
202	0xbbb4591c	-0.0055037867
203	0x3be723b0	0.007053815
204	0x3cfef5de	0.031123098
205	0x3ccd5148	0.025063172
206	0x3c9571b0	0.018242687
207	0xbd0b9760	-0.03407991
208	0x3cfae746	0.030627858
209	0x3b4a1760	0.0030836686
210	0x3c3ffac4	0.011717502
211	0x3abb45e0	0.0014287792
212	0xbc54380a	-0.012952814
213	0xbcca50a5	-0.024696657
214	0xbbaffb70	-0.00537055
215	0x3c8be4ec	0.017076932
216	0x3bcce140	0.006252438
217	0xbc3ed638	-0.011647753
218	0xbcba0fe0	-0.022712648
219	0xbc8cb250	-0.01717487
220	0xbb19ccf0	-0.00234681
221	0xbcc19800	-0.02363205
222	0x3b659a30	0.003503453
223	0x3cc88c40	0.024480939
224	0xbcc0acec	-0.023519956
225	0x3c501cdc	0.012702193
226	0xbceeecc3	-0.029165631
227	0x3c4a1304	0.012333635
228	0xbcf0d2e1	-0.02939743
229	0xbd07b7df	-0.033134338
230	0x3bb0a4f0	0.005390756
231	0x3ced7962	0.028988544
232	0xbc9cf637	-0.019160373
233	0xbcdf6873	-0.027271485
234	0x3cbe47de	0.023227628
235	0xbce0baa3	-0.027432745
236	0x3cee0d42	0.029059056
237	0xbb49e000	-0.003080368
238	0xbc98305c	-0.018577747
239	0x3cbc7e22	0.023009364
240	0x3c672444	0.0141077675
241	0xbc63a6b8	-0.013894729
242	0x3ceb181a	0.028698016
243	0x3cc00dc8	0.023444071
244	0xbc8cd983	-0.017193561
245	0x3c9df25a	0.019280601
246	0x3c307f60	0.010772556
247	0xbc064018	-0.008193992
248	0xbc02a3ca	-0.007973621
249	0xba2cf540	-0.00065978244
250	0xbc17a080	-0.009254575
251	0xbcbc8bfc	-0.023015969
252	0x3d023cff	0.03179645
253	0xbb2bfab0	-0.002624195
254	0x3c50a9b0	0.012735769
255	0x3c95574a	0.0182301

23 f4 [8]
0	0x3ab0eb40	0.0013497844
1	0x3cc90b58	0.024541542
2	0xbd073980	-0.03301382
3	0xbce04c25	-0.027380059
4	0x3c576028	0.013145484
5	0x3c889afe	0.016675469
6	0xbbe25170	-0.0069066808
7	0x3c8a16fe	0.016856667

24 f4 [8]
0	0x3d372ef0	0.044722497
1	0x3f51ea58	0.81998205
2	0x3f2c30dc	0.67262053
3	0x3f629f49	0.885243
4	0x3f39a3d6	0.7251562
5	0x3ed2425e	0.4106626
6	0x3f761828	0.9613061
7	0x3ed3143e	0.4122638

25 f4 [8]
0	0x00000000	0.0
1	0x00000000	0.0
2	0x00000000	0.0
3	0x00000000	0.0
4	0x00000000	0.0
5	0x00000000	0.0
6	0x00000000	0.0
7	0x00000000	0.0

26 f4 [8]
0	0x00000000	0.0
1	0x00000000	0.0
2	0x00000000	0.0
3	0x00000000	0.0
4	0x00000000	0.0
5	0x00000000	0.0
6	0x00000000	0.0
7	0x00000000	0.0

27 f4 [8]
0	0x3f800000	1.0
1	0x3f800000	1.0
2	0x3f800000	1.0
3	0x3f800000	1.0
4	0x3f800000	1.0
5	0x3f800000	1.0
6	0x3f800000	1.0
7	0x3f800000	1.0

29 f4 [20, 3, 7, 7]
0	0x3d969400	0.073524475
1	0xbd55cc6a	-0.052196898
2	0xbd038f44	-0.03211905
3	0x3d940516	0.072275326
4	0xbd3e8c59	-0.046520565
5	0xbd843778	-0.06455892
6	0xbd3b7aaa	-0.04577128
7	0x3d9802f0	0.07422435
8	0x3d8ba64c	0.06818828
9	0xbcca93ea	-0.024728734
10	0x3d85040e	0.06494914
11	0xbca68162	-0.020325366
12	0x3d8f7ebc	0.070065945
13	0x3d86e6f6	0.06587021
14	0xbd4d08fa	-0.05005739
15	0x3bbff860	0.005858466
16	0x3d7dade4	0.061933413
17	0xbc8a9898	-0.016918465
18	0x3bbb2a60	0.0057118386
19	0x3c0c9fb8	0.008583002
20	0xbc73d3a8	-0.014882006
21	0x3d48ba50	0.049005806
22	0x3d9047f0	0.07044971
23	0x3cdf2708	0.027240291
24	0x3cb46504	0.022020824
25	0x3d05e2c2	0.032686956
26	0x3d6f0bac	0.05836074
27	0x3d9b9976	0.0759763
28	0xbd944cee	-0.07241236
29	0xbce6695e	-0.028126415
30	0xbd68db1c	-0.056849584
31	0x3d8f1418	0.069862545
32	0x3c12b2a0	0.00895372
33	0xbd9fad3f	-0.07796716
34	0xbc85abec	-0.01631733
35	0xbd06cba6	-0.032909058
36	0x3b990b80	0.0046705604
37	0x3b8a8250	0.0042269602
38	0x3d00505a	0.03132663
39	0x3d062600	0.032751083
40	0xbd7ca392	-0.06167943
41	0x3c460348	0.012085743
42	0xbcd09b36	-0.025464635
43	0xbcb5f7c6	-0.022212874
44	0x3ca2daa8	0.019879654
45	0x3d9925ec	0.07477936
46	0x3d041d20	0.03225434
47	0x3d1deec2	0.038557775
48	0x3c20bfe8	0.009811379
49	0x3ccd181c	0.02503591
50	0x3d5691d0	0.05238515
51	0x3d7c8d94	0.061658457
52	0x3c246840	0.010034621
53	0x3c450350	0.012024716
54	0xbc28c138	-0.010299973
55	0xbc94ea6c	-0.018178187
56	0xbd5a85aa	-0.05335013
57	0xbcf47270	-0.029839724
58	0x3d614db4	0.055005744
59	0x3d5827f4	0.052772477
60	0xbca41422	-0.020029131
61	0x3d5e29b8	0.054239005
62	0xbd12c41a	-0.03583155
63	0xbc36bf78	-0.011154048
64	0x3c8ee79c	0.017444424
65	0xbd8c94c0	-0.06864309
66	0x3be9bc90	0.007133074
67	0x3d89dcea	0.06731589
68	0xbc24bda8	-0.010054983
69	0x3cd5edcc	0.026114367
70	0xbcb6ff66	-0.02233858
71	0x3b8cdd60	0.004298851
72	0x3cbf10e4	0.023323484
73	0xbd2cbdc6	-0.04217317
74	0x3b363060	0.002779983
75	0x3d92d228	0.071689904
76	0xbd731172	-0.05934281
77	0x3c8658d0	0.016399771
78	0xbd9cb8f4	-0.076524645
79	0xbd35c29c	-0.044375047
80	0x3d96d898	0.07365531
81	0x3d731adc	0.059351787
82	0xbc060908	-0.008180864
83	0x3b970f30	0.004609965
84	0xbd532a4c	-0.05155401
85	0xbd5ee633	-0.054418754
86	0x3da3827a	0.07983871
87	0x3cff56e0	0.031169355
88	0x3d31ac1c	0.043377027
89	0xbc15f1a0	-0.009151846
90	0xbd0a48b8	-0.033760756
91	0xbd3b1de8	-0.045682818
92	0x3d85b702	0.065290466
93	0xbd212e05	-0.03935053
94	0xbda8cd26	-0.08242254
95	0xbd45a954	-0.048257187
96	0xbc25d0d8	-0.010120593
97	0xbd8fa87f	-0.0701456
98	0xbd2048c0	-0.03913188
99	0xbd90ba1c	-0.070667475
100	0x3d5c8048	0.053833276
101	0xbd6af26a	-0.05736009
102	0xbd45008c	-0.048096225
103	0xbd280b67	-0.0410265
104	0x3bfc12c0	0.007692665
105	0x3d249cc2	0.04018856
106	0xbbc81bf0	-0.006106846
107	0x3d8989c6	0.06715731
108	0x3ceec4e0	0.029146612
109	0x3c086c18	0.008326553
110	0xbd801428	-0.062538445
111	0x3c89d8c0	0.016826987
112	0x3d953db8	0.072871625
113	0x3d30f4b4	0.043202117
114	0xbd94e9b9	-0.072711416
115	0x3d80159c	0.06254122
116	0xbda6230c	-0.081121534
117	0xbc82dd34	-0.015974618
118	0xbbb94780	-0.0056542754
119	0xbd580d65	-0.05274715
120	0x3d633af4	0.055476144
121	0x3d103d72	0.03521485
122	0x3ca3592c	0.019939981
123	0xbd92f043	-0.071747325
124	0xbd121454	-0.035663918
125	0xbd03d55d	-0.0321859
126	0xbc0150f0	-0.007892832
127	0x3d7376e8	0.05943957
128	0xbd633718	-0.055472463
129	0xbd76a1d0	-0.06021291
130	0xbd35c784	-0.044379726
131	0xbd2de944	-0.042458788
132	0xbc9d3210	-0.01918891
133	0xbd9b19ed	-0.07573304
134	0x3d5e7f48	0.054320604
135	0xbd84d7c7	-0.06486469
136	0xbd3e3fc7	-0.04644754
137	0xbd8a6ecf	-0.06759416
138	0x3d8c3aac	0.06847128
139	0x3afbf040	0.001922138
140	0xbd00e587	-0.031468894
141	0x3d553a08	0.052057296
142	0xbcfe110c	-0.031013988
143	0xbb04c140	-0.0020256788
144	0x3d59ee1c	0.053205594
145	0xbcce8456	-0.025209587
146	0x3d7671d0	0.060167134
147	0xbd4cba3b	-0.04998229
148	0xbd2e71e9	-0.042589102
149	0x3c0acb18	0.008471273
150	0xbd5fe81c	-0.054664716
151	0xbcae15b0	-0.021250576
152	0x3b28fbe0	0.0025784895
153	0x3ce81cb4	0.028334
154	0xbd43a2cf	-0.04776269
155	0x3d1cab9e	0.038249604
156	0xbd467d03	-0.048459064
157	0x3d9b22be	0.07574986
158	0x3d9edaf0	0.07756603
159	0x3d104cb0	0.035229385
160	0xbd928bd0	-0.07155573
161	0x3bffe0c0	0.0078087747
162	0x3a809080	0.0009808689
163	0xbcb79bc2	-0.022413138
164	0xbcfc8258	-0.030823871
165	0x3da441c6	0.08020358
166	0xbcbbbaae	-0.022916164
167	0xbc9957bc	-0.018718593
168	0xbcd64134	-0.026154138
169	0x3c4e80b8	0.012603931
170	0xbd92b876	-0.071640894
171	0x3c09cf40	0.008411229
172	0xbd8e8410	-0.06958783
173	0x3d893fec	0.06701645
174	0xbcca6afc	-0.024709217
175	0x3d9f923e	0.07791565
176	0x3d87384c	0.06602535
177	0xbcb6511e	-0.022255477
178	0xbd300898	-0.042976946
179	0x3d822840	0.06355333
180	0x3d5feb38	0.05466768
181	0x3bb3d800	0.0054883957
182	0xbd0be3ef	-0.03415292
183	0xbd843083	-0.064545654
184	0xbcdc66e6	-0.026904535
185	0xbb77dfc0	-0.0037822574
186	0x3c0607d8	0.008180581
187	0x3d95b8a4	0.07310608
188	0x3d048e30	0.032362163
189	0x3d651880	0.05593157
190	0xbd7f0c59	-0.062267635
191	0x3cfd6b38	0.030934915
192	0xbd0cfc3d	-0.03442024
193	0xbc1c38f0	-0.009535059
194	0xbc8ecbbc	-0.017431132
195	0x3d92ef92	0.07174601
196	0xbc075218	-0.008259319
197	0xbbb37a80	-0.0054772496
198	0x3c983cc4	0.018583663
199	0xbcdb616c	-0.026779853
200	0xbd52d904	-0.051476493
201	0x3d3d65dc	0.04623972
202	0xbd525044	-0.05134608
203	0x3d74f9f8	0.0598087
204	0x3d6ed48c	0.05830817
205	0x3d7aa838	0.061195582
206	0x3d63fa14	0.055658415
207	0xbd0b9b82	-0.03408385
208	0x3da5525e	0.08072351
209	0x3aaebcc0	0.0013331398
210	0x3c36aa00	0.01114893
211	0x3d2a2cfa	0.0415468
212	0x3d67eb2c	0.05662076
213	0xbd49774d	-0.04918604
214	0x3d85094a	0.064959124
215	0x3d2c830a	0.042117156
216	0xbd919697	-0.07108801
217	0x3c8b7708	0.017024532
218	0x3d53b3c4	0.05168511
219	0xbd1b4d84	-0.03791572
220	0xbda87b5f	-0.08226656
221	0xbad95d40	-0.0016583577
222	0xbcf58c4a	-0.029974122
223	0xbd76aff2	-0.06022639
224	0xbd64b49c	-0.055836305
225	0x3d58aaa0	0.052897096
226	0xbb2b9dc0	-0.0026186556
227	0x3ca39f1c	0.01997333
228	0xbd881940	-0.06645441
229	0x3d56c3cc	0.05243282
230	0x3c4a9e60	0.012366861
231	0x3a9cdd40	0.0011967793
232	0x3d811042	0.06301929
233	0x3d239062	0.039932616
234	0xbc8dd5f8	-0.017313942
235	0x3d63049c	0.055424318
236	0xbd5975f6	-0.053091012
237	0x3a728680	0.00092516094
238	0xbda0f0bb	-0.07858416
239	0xbd8ab8e3	-0.067735456
240	0xba790800	-0.0009499788
241	0xbc742ce8	-0.014903285
242	0x3da353cc	0.07974967
243	0x3d1d08d4	0.038338497
244	0xbcdcf512	-0.026972327
245	0x3d9c35e8	0.07627469
246	0x3d9b5bb8	0.07585853
247	0xbd98f182	-0.07467939
248	0x3c841d54	0.016127266
249	0x3bfc92e0	0.0077079386
250	0x3d20e44e	0.03928023
251	0x3d078884	0.033089176
252	0x3d025c6c	0.03182642
253	0x3d83f096	0.064423725
254	0x3d0ecb5e	0.034861915
255	0xbc6315f0	-0.013860211

30 f4 [20]
0	0xbd01d9d2	-0.03170187
1	0xbd9a456d	-0.07532773
2	0xbc535358	-0.012898289
3	0xbd1d43fa	-0.038394906
4	0xbd82aa90	-0.063801885
5	0xbd97d4f7	-0.07413667
6	0xbbea3120	-0.0071469694
7	0x3c5f3978	0.013624541
8	0xbd658e4d	-0.05604391
9	0x3d84576a	0.064619854
10	0xbd7e58f8	-0.062096566
11	0xbd2e9e0f	-0.042631205
12	0x3d611408	0.054950744
13	0xbda861e0	-0.08221793
14	0x3ccb331c	0.024804644
15	0xbd50b886	-0.050957225
16	0x3d4f9bfc	0.050685868
17	0x3d99ef90	0.07516396
18	0x3a998ec0	0.0011715516
19	0x3d3f6998	0.04673156

31 f4 [20]
0	0x3f4f0350	0.8086443
1	0x3c88da60	0.016705692
2	0x3e8e6ae2	0.2781592
3	0x3e4cf550	0.20015454
4	0x3f42617a	0.7592999
5	0x3f0eeaaa	0.5582682
6	0x3e98c588	0.29838204
7	0x3cde9f80	0.027175665
8	0x3e102744	0.14077479
9	0x3f67c79d	0.9053896
10	0x3f3142a4	0.6924231
11	0x3f5f8b3d	0.87321836
12	0x3ef0d776	0.47039384
13	0x3f28c9fd	0.6593321
14	0x3f530cf3	0.82441634
15	0x3eb68ac8	0.35652757
16	0x3f6bdfb7	0.92138237
17	0x3e0c2c28	0.1368872
18	0x3f3951aa	0.72390234
19	0x3f46d536	0.77669084

32 f4 [20]
0	0x00000000	0.0
1	0x00000000	0.0
2	0x00000000	0.0
3	0x00000000	0.0
4	0x00000000	0.0
5	0x00000000	0.0
6	0x00000000	0.0
7	0x00000000	0.0
8	0x00000000	0.0
9	0x00000000	0.0
10	0x00000000	0.0
11	0x00000000	0.0
12	0x00000000	0.0
13	0x00000000	0.0
14	0x00000000	0.0
15	0x00000000	0.0
16	0x00000000	0.0
17	0x00000000	0.0
18	0x00000000	0.0
19	0x00000000	0.0

33 f4 [20]
0	0x00000000	0.0
1	0x00000000	0.0
2	0x00000000	0.0
3	0x00000000	0.0
4	0x00000000	0.0
5	0x00000000	0.0
6	0x00000000	0.0
7	0x00000000	0.0
8	0x00000000	0.0
9	0x00000000	0.0
10	0x00000000	0.0
11	0x00000000	0.0
12	0x00000000	0.0
13	0x00000000	0.0
14	0x00000000	0.0
15	0x00000000	0.0
16	0x00000000	0.0
17	0x00000000	0.0
18	0x00000000	0.0
19	0x00000000	0.0

34 f4 [20]
0	0x3f800000	1.0
1	0x3f800000	1.0
2	0x3f800000	1.0
3	0x3f800000	1.0
4	0x3f800000	1.0
5	0x3f800000	1.0
6	0x3f800000	1.0
7	0x3f800000	1.0
8	0x3f800000	1.0
9	0x3f800000	1.0
10	0x3f800000	1.0
11	0x3f800000	1.0
12	0x3f800000	1.0
13	0x3f800000	1.0
14	0x3f800000	1.0
15	0x3f800000	1.0
16	0x3f800000	1.0
17	0x3f800000	1.0
18	0x3f800000	1.0
19	0x3f800000	1.0
