model.onnx (onnx, 652664 bytes, 73 tensors)

1 f4 [16, 3, 9, 9]
000000 6c d0 b0 3c 2c 78 4a 3d 17 eb 81 3d 38 8d c6 3c
       0.021583758 0.04943101 0.06343668 0.02423726
000010 ec ba c6 3c 7c 52 24 bc 36 86 27 bd d4 ff 44 3d
       0.024259053 -0.010029431 -0.040899478 0.04809554
000020 d6 91 35 bd e8 c0 e2 3c a6 ec db bc 1e 5f 60 bd
       -0.044328533 0.027679875 -0.026846241 -0.05477821
000030 34 8e cf bc dc ea 4a bc c0 c5 21 bd 88 1c a1 3c
       -0.025336362 -0.012385096 -0.03949523 0.019666925
000040 52 98 ba bc 6e 64 4a bd d4 71 71 bc ce ea ff bc
       -0.02277771 -0.049412183 -0.014736611 -0.031239893
000050 ad 54 6e bd 57 7a 7f bd e4 03 60 3d d4 2b 73 bd
       -0.058186222 -0.06237253 0.05469121 -0.05936797
000060 fc 7e 11 3d 00 bf f4 3a 08 64 27 3c ee f3 55 3d
       0.035521492 0.0018672645 0.01021672 0.052234583
000070 60 c5 56 bd e8 5a cf 3c 58 f8 90 bc f4 5c 45 bd
       -0.052434325 0.025311902 -0.017696545 -0.04818435
000080 34 13 e4 bc c0 da 54 3b ba e4 26 3d 56 e2 02 bd
       -0.027841188 0.0032479018 0.040745474 -0.031954132
000090 20 8d 2c 3c 9a 13 b8 bc bc 71 b7 3c 2e 69 47 3d
       0.010531694 -0.022470284 0.0223931 0.04868429
0000a0 18 10 03 bd fc 2e 80 3c 8d 6c 64 bd 34 89 c8 3c
       -0.03199777 0.015647404 -0.055767585 0.024479486
0000b0 a0 0e d1 3c 08 b3 b9 bb aa 9f db bc 90 f2 d2 3b
       0.025519669 -0.005667094 -0.026809532 0.006437607
0000c0 9c 66 3d bc f0 9e 4d 3c c0 bf 5f 3c 90 c6 41 3c
       -0.0115601085 0.012550101 0.013656557 0.011827126
0000d0 d4 24 66 3d 14 16 27 bc c0 fe d7 3a 2a ec 55 3d
       0.056187466 -0.010198135 0.001647912 0.052227177
0000e0 34 77 21 3d 71 ef 5e bd fa be 13 bd c0 08 25 3c
       0.03942032 -0.054427568 -0.0360708 0.010072887
0000f0 40 f0 4b 3d 68 b3 04 3c 56 7a b6 bc f2 60 6a 3d
       0.049789667 0.008099414 -0.022275131 0.05722136
000100 8e 12 23 bd 30 07 81 bd 20 44 94 bc 4c 59 2f bc
       -0.039812617 -0.06300199 -0.01809889 -0.010702442
000110 bc 9a 79 bd ac 98 64 bd 82 c0 a6 bc 00 a9 75 ba
       -0.06093858 -0.05580966 -0.020355467 -0.0009371191
000120 fb 29 07 bd e0 71 56 3c 88 99 16 bd 60 c3 be bb
       -0.03299902 0.013088673 -0.036767513 -0.0058216304
000130 98 14 93 bb 07 b6 81 3d d8 0f 77 3c 81 fe 3d bd
       -0.004488539 0.06333547 0.015079461 -0.046385292
000140 8c b2 9d 3c 1c 30 27 3d ed 80 08 bd 6c 58 2c 3d
       0.019250177 0.040817365 -0.03332608 0.042076513
000150 2a 61 27 3d 64 e2 89 bc e0 09 f8 3b 3e 8f 78 3d
       0.040864147 -0.016831584 0.0075695366 0.06068348
000160 a0 ec ad 3c 3c 65 12 3d da 6c e6 bc de 2d 81 bd
       0.021230996 0.035741076 -0.028128076 -0.063075766
000170 22 a0 1e 3d 18 9e 1b 3d ca b4 6e 3d 62 0e 23 3d
       0.038726933 0.037992567 0.058277883 0.03980864
000180 d0 2a 56 3c 60 9c 86 3c 98 cc 37 3c 78 57 c6 3c
       0.013071731 0.016431987 0.011218213 0.02421163
000190 1a 3c 24 3d 5f 29 83 3d 04 b1 44 bd 20 c6 e8 3b
       0.04009638 0.06404375 -0.048020378 0.0071036965
0001a0 d8 ff 7b bd 40 3d 9d ba 5c 32 fd bc f2 17 f3 bc
       -0.06152329 -0.0011996403 -0.030907802 -0.029674504
0001b0 78 33 28 3c f3 a5 80 3d cd 2e 76 bd ab ad 2f bd
       0.010266177 0.06281652 -0.060103226 -0.042890232
0001c0 96 b2 67 3d 30 ff d5 3b 74 15 6f bd 86 ad 8a bc
       0.056566797 0.006530665 -0.05837007 -0.016928446
0001d0 10 57 33 bd ca 2c 10 bd 9c af 6e bd 22 7c 0e 3d
       -0.0437842 -0.035198964 -0.058272943 0.03478635
0001e0 8e 75 34 3d 58 83 9a 3c 75 ec 78 bd e0 97 54 3b
       0.04405742 0.018861458 -0.060772378 0.0032439157
0001f0 48 0e 79 bd 27 bb 31 bd 08 c3 f2 3c a3 cb 59 bd
       -0.060804635 -0.043391373 0.029634014 -0.05317272
000200 00 ce 95 3c 94 74 20 bd c4 9f 23 3d 18 8f c7 bc
       0.018286705 -0.039173678 0.039947286 -0.024360225
000210 34 3a 46 3d 3c fd 77 bc 2d 64 5a bd 60 71 39 3b
       0.04839535 -0.015136059 -0.05331819 0.0028296337
000220 c0 18 fb 3a d4 a6 17 3d d2 23 70 bd 00 8e 97 bb
       0.0019157156 0.037024334 -0.05862791 -0.004625082
000230 1c 77 80 bd ca 52 e1 bc e6 e6 67 3d e4 ed a6 3c
       -0.06272718 -0.027505297 0.056616686 0.020377107
000240 8a 4b 99 bc 97 5e 7e bd 0a 6e f4 bc 20 4f 50 bd
       -0.018712778 -0.062101927 -0.029837627 -0.05085671
000250 02 8e 5a 3d c4 60 7c bc 92 ca 7d bd 04 9e e2 3c
       0.053358085 -0.01540393 -0.061960764 0.027663238
000260 08 0b 42 bd 34 f4 ea 3c 42 64 18 3d 52 13 d1 bc
       -0.0473738 0.028680898 0.03720499 -0.025521908
000270 c4 36 83 3c c6 02 1a bd 50 78 fc bb c5 27 23 bd
       0.016017325 -0.0376003 -0.007704772 -0.03983285
000280 50 72 d4 3b f0 cc 4b bb 20 8c 48 bd e8 ec bd bc
       0.0064833537 -0.0031097494 -0.04896176 -0.023184255
000290 3a a5 61 3d a4 65 49 3d 10 f9 0f 3d 90 c1 65 bc
       0.055089213 0.049169198 0.035149634 -0.0140232
0002a0 40 be 97 3a 1a 58 54 bd f2 63 76 3d 28 77 82 3c
       0.0011577085 -0.051841833 0.06015391 0.015925959
0002b0 66 d5 64 bd 5a 0b 4d 3d 94 4d 84 bc 2c 36 0a bd
       -0.055867575 0.050059654 -0.016150273 -0.03374307
0002c0 68 dc 68 bd ca d0 49 bd 20 56 12 3b a2 9a 4c bd
       -0.05685082 -0.049271382 0.0022329167 -0.049952157
0002d0 90 89 de 3b 50 88 dd 3c ae 7a 27 3d 69 0c 73 bd
       0.006791301 0.027042538 0.04088848 -0.059338007
0002e0 6e 6e cd bc 2f 42 06 bd 36 0a 55 3d f6 48 5a 3d
       -0.025077071 -0.03277796 0.05201169 0.053292237
0002f0 88 be 38 3d fc b2 ca 3c 80 26 26 bd 74 b2 e2 3c
       0.04510358 0.02474355 -0.04056406 0.027672984
000300 1a 97 54 bd 90 81 34 3c a4 f8 07 3d 10 de 4d bd
       -0.051901914 0.011017218 0.033196107 -0.050260603
000310 9a 52 98 bc f8 fc 39 3d 2c 06 e4 3c 5c 25 81 bd
       -0.018594075 0.045407265 0.027834974 -0.06305954
000320 7a 70 02 3d a5 54 04 bd 60 07 d9 3c 34 e3 ec 3c
       0.031845547 -0.032307286 0.026492774 0.028916933
000330 d4 d1 53 bc 78 89 0e bd 06 ca 40 3d e4 58 19 bd
       -0.012928445 -0.03479907 0.047067665 -0.03743829
000340 a4 cb 9f 3c aa ce 19 bd f4 1f 17 bc 48 ec 13 3d
       0.019506283 -0.037550606 -0.009223927 0.036114007
000350 70 61 03 3d 2c e8 c6 bc 12 9b 07 3d 84 d2 34 bd
       0.032075346 -0.02428063 0.03310687 -0.044146076
000360 68 b7 64 3c f2 98 12 3d f0 c3 fe 3b b8 9c e7 bb
       0.013959743 0.03579039 0.0077748224 -0.007068243
000370 f8 80 fa 3c da 60 96 bc e8 05 74 bd 46 8d 38 3d
       0.030579075 -0.01835673 -0.059575945 0.045056604
000380 98 85 cd 3c 76 8e 5f 3d ac a9 95 bc 69 62 0b bd
       0.025088117 0.05457922 -0.018269382 -0.034029398
000390 8e c6 2c bd b6 2c 5c 3d f4 56 d9 3c 4c 69 87 3c
       -0.042181544 0.053753577 0.02653072 0.016529702
0003a0 20 6c 96 3b c0 7d d8 ba 8c 2c bc 3c 6e 37 30 3d
       0.004590526 -0.0016516969 0.02297046 0.043021612
0003b0 74 a3 ba bc 38 6d 4e 3d 08 20 3f 3d bc 16 2b bd
       -0.022783019 0.050397128 0.046661407 -0.041769728
0003c0 bf 0e 5a bd 94 39 a9 3c ec 2c 88 3c d7 86 69 bd
       -0.05323672 0.020657338 0.016622983 -0.05701336
0003d0 94 93 0d 3d de 2a 10 bd d5 44 53 bd d0 e2 6c 3d
       0.03456457 -0.03519713 -0.051579315 0.057833493
0003e0 e4 c2 ea bc b6 bf 7d 3d 4c 35 a6 3c f0 27 3d bd
       -0.028657384 0.061950408 0.020289086 -0.046180665
0003f0 60 df 27 3b 64 6e 28 3d f6 80 5f 3d 24 16 04 3d
       0.002561532 0.0411209 0.054566346 0.032247677

2 f4 [16]
000000 f8 c8 23 3d 38 13 0e 3c 14 bc c1 3c 70 49 46 3d
       0.03998658 0.008671574 0.023649253 0.04840988
000010 68 12 c8 3c b0 de c2 3c f6 58 3a bd 60 a9 3b bc
       0.02442284 0.023787826 -0.045494996 -0.011453956
000020 2f d1 41 bd c0 ce 30 3b 32 89 73 3d 20 62 25 3d
       -0.047318634 0.0026978701 0.05945701 0.040376782
000030 b0 86 50 3c 80 91 55 3b 64 27 57 3d 1d a2 60 bd
       0.0127274245 0.0032587945 0.0525278 -0.054842103

3 f4 [16]
000000 ce 27 d3 3e fc de 64 3f 14 22 ec 3e 6f 45 23 3f
       0.41241306 0.8940275 0.4611975 0.6377782
000010 78 ef 18 3e f0 d0 05 3d 7a b9 06 3f 17 4a 13 3f
       0.149351 0.03266996 0.52626765 0.5753493
000020 91 97 72 3f 8f 97 59 3f 9e f7 4e 3f 8e 13 c3 3e
       0.9476252 0.84996885 0.80846584 0.38100857
000030 48 e5 99 3e 82 6d 8b 3e d3 99 48 3f fd cf 4a 3f
       0.3005774 0.27231985 0.7835972 0.79223615

4 f4 [16]
000000 00 00 00 00 00 00 00 00 00 00 00 00 00 00 00 00
       0.0 0.0 0.0 0.0
000010 00 00 00 00 00 00 00 00 00 00 00 00 00 00 00 00
       0.0 0.0 0.0 0.0
000020 00 00 00 00 00 00 00 00 00 00 00 00 00 00 00 00
       0.0 0.0 0.0 0.0
000030 00 00 00 00 00 00 00 00 00 00 00 00 00 00 00 00
       0.0 0.0 0.0 0.0

5 f4 [16]
000000 00 00 00 00 00 00 00 00 00 00 00 00 00 00 00 00
       0.0 0.0 0.0 0.0
000010 00 00 00 00 00 00 00 00 00 00 00 00 00 00 00 00
       0.0 0.0 0.0 0.0
000020 00 00 00 00 00 00 00 00 00 00 00 00 00 00 00 00
       0.0 0.0 0.0 0.0
000030 00 00 00 00 00 00 00 00 00 00 00 00 00 00 00 00
       0.0 0.0 0.0 0.0

6 f4 [16]
000000 00 00 80 3f 00 00 80 3f 00 00 80 3f 00 00 80 3f
       1.0 1.0 1.0 1.0
000010 00 00 80 3f 00 00 80 3f 00 00 80 3f 00 00 80 3f
       1.0 1.0 1.0 1.0
000020 00 00 80 3f 00 00 80 3f 00 00 80 3f 00 00 80 3f
       1.0 1.0 1.0 1.0
000030 00 00 80 3f 00 00 80 3f 00 00 80 3f 00 00 80 3f
       1.0 1.0 1.0 1.0

8 f4 [32, 16, 7, 7]
000000 2a 48 e7 3c 2a 5e c0 bc ec bb d0 bc 5a 75 a7 3c
       0.028232653 -0.0234824 -0.025480233 0.0204417
000010 b0 d0 aa bc 36 0a f9 3c cc 6d c6 3c 10 6a 82 bc
       -0.020851463 0.030400377 0.024222277 -0.015919715
000020 45 1c ca bc 0e fe f4 bc 8f 9e 0c bd 14 51 5b 3c
       -0.024671683 -0.029906299 -0.0343309 0.01338603
000030 52 2c 2a bc c8 b7 36 3c 30 93 9a bc 88 d0 9c 3b
       -0.010386543 0.011152215 -0.018869013 0.004785601
000040 60 73 4e 3c 20 68 6a 3b a0 48 7b 3c e0 ba f5 3b
       0.01260075 0.003576763 0.015337139 0.007499084
000050 b3 49 b6 bc 52 bc c7 3c 7a 3e 95 bc 50 8e 0f bd
       -0.02225194 0.02438179 -0.018218268 -0.03504783
000060 3f 51 09 bd 58 10 3d bc 4a b7 3e bc 60 7c 30 bb
       -0.033524748 -0.011539541 -0.011640379 -0.0026929602
000070 8a c2 a7 bc 1a 1c ef bc 38 b2 b3 3c ce 46 5e bc
       -0.020478506 -0.029188205 0.021935567 -0.013566686
000080 32 14 b6 3c 86 36 40 bc 62 0d e5 3c 5a d5 05 bd
       0.022226427 -0.011731749 0.027960483 -0.03267417
000090 48 67 d7 3c c2 dc d4 3c 02 21 ac 3c 50 a6 b8 bc
       0.026294366 0.025984172 0.021011833 -0.022540241
0000a0 14 a9 a9 bb 99 e6 0e 3d 8a 6c 6b bc 91 29 09 3d
       -0.0051776264 0.034887884 -0.014369139 0.033486906
0000b0 5f f4 0e 3d 9a a8 0d bd be 6d be 3c 34 00 12 bd
       0.03490102 -0.03458462 0.023245689 -0.035644725
0000c0 9c bf 37 bc 98 6d 36 bc e0 a7 a6 ba 60 25 b4 3a
       -0.011215117 -0.011134528 -0.0012714826 0.0013744049
0000d0 a0 e0 f9 3a c6 22 56 bc 8a d0 2f bc cc c0 b0 bc
       0.0019064136 -0.013069814 -0.010730872 -0.021576308
0000e0 24 2d 42 3c fe 1a fa bc 08 9b b8 bb 88 19 32 3c
       0.011851583 -0.030530449 -0.0056337155 0.010870345
0000f0 00 0b b5 3a 91 63 e6 bc b8 1f 22 bc 00 b5 da ba
       0.0013812482 -0.028123649 -0.009895258 -0.0016686022
000100 12 a8 af 3c 78 86 cc 3c 78 01 fd bc d2 6a ba 3c
       0.021442447 0.024966463 -0.03088449 0.022756014
000110 e4 b1 aa bb 53 ab 84 bc 06 97 fd 3c b5 75 e1 bc
       -0.0052091945 -0.016194975 0.030955803 -0.027521947
000120 70 05 09 3b 83 e5 c0 bc bc 2f 0d 3c de 57 ee 3c
       0.0020907782 -0.02354694 0.008617338 0.029094633
000130 fa b3 d2 bc 00 2d 82 bc f3 0b c9 bc 34 0a 60 3c
       -0.025720585 -0.015890598 -0.02454183 0.013674308
000140 7e 85 d0 3c e6 f5 a6 3c bc 32 fa bc b6 56 b8 3c
       0.025454279 0.020380925 -0.03054177 0.022502284
000150 a2 13 e4 3c fc 32 33 bc ee a8 f9 3c f5 0f ef bc
       0.027841393 -0.010937449 0.03047606 -0.029182414
000160 50 cb a7 3b 43 21 0d 3d 8a a3 21 bc e7 f9 96 bc
       0.0051206723 0.03445555 -0.009865651 -0.01842971
000170 02 3a 90 3c de 16 02 bd 52 a7 0d bd 3c 69 3c 3c
       0.017605785 -0.03176009 -0.034583397 0.011499699
000180 1c 98 b4 bb 06 2a f2 3c 2c fa d4 3c 28 0a 90 bb
       -0.005511297 0.029561054 0.025998197 -0.004395742
000190 20 89 0a 3c c0 43 96 bc 65 da 9d bc 7c 47 6a bc
       0.008455545 -0.018342853 -0.019269178 -0.01429927
0001a0 e4 92 f5 bb 2f f9 0c 3d e3 37 87 bc 90 1a 8d 3c
       -0.0074943174 0.034417327 -0.016506141 0.01722458
0001b0 c2 2f c0 3c 92 fd 33 bc e0 20 60 3c e2 12 e5 3c
       0.023460273 -0.010985749 0.013679713 0.027963106
0001c0 f8 ed f6 bb d4 fb a1 bb ca a0 6d bc 08 a9 8c bb
       -0.0075356923 -0.0049433503 -0.014503667 -0.004292611
0001d0 40 25 66 ba b8 45 ce 3b c8 c9 d8 3b ec c0 b2 bc
       -0.00087793544 0.006294932 0.006615851 -0.021820508
0001e0 88 5a ea 3b bc 32 06 bc 71 41 0b 3d 40 49 60 3a
       0.0071519054 -0.008190807 0.033997957 0.0008555837
0001f0 70 22 dc 3b af 10 05 3d a0 4e f4 3b 54 06 66 3c
       0.0067179725 0.032486614 0.007455662 0.014039595
000200 31 ca ff bc c4 10 0b bd 3c e1 aa 3c 94 d4 ab bb
       -0.031224342 -0.033951536 0.020859353 -0.005243847
000210 00 e6 cc 3a 7e eb dc bc 5c f8 f7 bc 78 03 8a bb
       0.001563251 -0.02696776 -0.030269794 -0.0042118393
000220 e0 1f 52 bb 68 de 14 3c a8 e8 9f 3b d6 ea e6 3c
       -0.0032062456 0.009086229 0.0048800297 0.02818815
000230 80 ea e0 bc 3e f0 ea 3c 55 29 8b bc 27 8c 05 3d
       -0.027455568 0.02867901 -0.016987482 0.032604363
000240 32 a9 d5 3c cc a7 88 bc d0 15 9f 3b e0 23 c5 3a
       0.026081655 -0.016681574 0.004854895 0.0015040599
000250 da e9 90 3c ac 98 ad bc d0 6d f4 3b dc 07 44 3c
       0.017689634 -0.021190964 0.0074593797 0.011964764
000260 d0 b1 10 3b 35 a5 86 bc 7c 0d 95 bc b0 9d 17 3b
       0.002207864 -0.016436199 -0.018194906 0.002313476
000270 5c 3a d1 3c 06 a8 65 bc dc 74 8c 3c fc 95 ff bc
       0.025540523 -0.014017111 0.017145567 -0.031199448
000280 e5 ad f0 bc c0 d0 22 3a 30 62 3f 3b fe bd b6 3c
       -0.029379794 0.0006210916 0.0029202811 0.022307392
000290 60 59 98 ba 78 26 2d bc 60 d1 6e bc 8a 39 85 3c
       -0.0011623316 -0.010568254 -0.014576286 0.016262788
0002a0 e4 05 8e 3c 60 63 fa 3a d2 53 e4 3c 48 d9 af bc
       0.017336793 0.0019103102 0.027872 -0.021465912
0002b0 98 91 b5 3c f0 d3 1c 3c 2e 51 01 bd 3e 5b fb 3c
       0.022164151 0.009572014 -0.03157156 0.030683156
0002c0 68 a8 94 3c 78 27 95 bb 5e be 01 bd 67 d2 09 3d
       0.018146709 -0.004551824 -0.03167569 0.03364792
0002d0 76 d6 b0 3c 80 14 83 b9 74 39 4b 3c 24 42 e2 bb
       0.021586638 -0.0002500154 0.012403835 -0.0069048572
0002e0 98 ce 8a bb da 13 f6 3c b4 7f 77 bc 38 1d 15 bc
       -0.0042360537 0.030038763 -0.01510613 -0.009101205
0002f0 5c e4 31 3c 4a 19 39 bc 5c 33 13 3c 38 5d 61 3c
       0.010857668 -0.011297533 0.008984413 0.013755135
000300 76 ac 0c bd 5c 16 05 bd b4 f3 49 3c 4e 67 8f bc
       -0.03434416 -0.032492027 0.01232617 -0.017505314
000310 d2 50 c7 3c c5 82 0c 3d 08 5f 88 bb 80 a3 f7 39
       0.02433053 0.0343044 -0.004161719 0.00047233328
000320 38 41 36 bc 90 cc 48 3c 22 f3 86 3c ca 90 d5 3c
       -0.011123948 0.012255803 0.016473357 0.026070017
000330 f0 22 51 3c 1a 0d 91 3c c0 6b d4 3b 1c a0 6c bc
       0.012764677 0.017706443 0.0064825714 -0.01444247
000340 4a 94 01 bd 08 bc ec bb f0 cf da bb 86 f3 1d bc
       -0.03163556 -0.0072245635 -0.00667762 -0.00964058
000350 e0 d5 26 3b 60 5f 69 3b 7c 57 f6 bc 1e 4c c9 bc
       0.002545707 0.0035609826 -0.030071013 -0.024572428
000360 a6 5d bd 3c d7 bd 01 bd a0 12 48 bc c8 eb 84 3c
       0.023115944 -0.031675186 -0.012211472 0.01622571
000370 ce c1 41 bc 26 6e a5 3c 55 2c d2 bc c8 a1 82 3c
       -0.011825992 0.020194124 -0.025655905 0.015946284
000380 a4 95 24 3c 66 61 20 bc 98 bf 38 bc 4c 40 f4 bc
       0.010045443 -0.009788847 -0.011276148 -0.029815815
000390 07 2a 03 3d 88 84 62 3c 0a 6d 30 bc ab 0e 0a bd
       0.032022502 0.013825543 -0.010768184 -0.033705395
0003a0 1c 3f 0d bd 00 c1 51 3b a0 bf fa 3b a8 ae f8 bc
       -0.034484014 0.0032005906 0.007652238 -0.03035672
0003b0 30 17 ca 3c 8e 6c 92 bc 78 ae 68 bc 80 cf bd bc
       0.02466926 -0.017874029 -0.014201753 -0.023170233
0003c0 2c 61 9c 3c 20 14 d3 3c b0 5c d9 3b 7e fc eb 3c
       0.019089304 0.025766432 0.0066333637 0.028806921
0003d0 dc 8c 04 bc c0 e3 07 bc da 8d 8a 3c ce d5 33 bc
       -0.008090224 -0.008294046 0.016913343 -0.010976268
0003e0 e0 7f 25 bb 0a f5 e4 3c ce 4c 11 bd 2a fd b3 3c
       -0.0025253221 0.027948875 -0.035473637 0.021971304
0003f0 10 26 c6 3c 5c b2 b7 3c f3 89 82 bc 60 63 66 bb
       0.024188071 0.022423916 -0.01593492 -0.0035154447

9 f4 [32]
000000 a0 36 09 3c 78 b0 d5 bc 20 36 01 bd 7e 48 fc bc
       0.00837484 -0.026085123 -0.03154576 -0.030796286
000010 70 c9 20 bb 32 af 44 bc 80 08 d0 3c 70 13 e4 bc
       -0.0024534129 -0.01200466 0.025394678 -0.0278413
000020 bc 55 d5 3c b5 df 84 bc 26 b5 17 bc 4e 82 ef bc
       0.026041858 -0.016219953 -0.009259498 -0.029236939
000030 bc 8c 83 3c 70 c2 f1 bb 60 bd 04 3b 9c 2d 88 bc
       0.016058318 -0.007377915 0.0020254478 -0.01662331
000040 05 b6 a9 bc 20 23 80 ba ca 87 4a bc e2 5b 9f 3c
       -0.020716676 -0.0009776093 -0.012361476 0.019452993
000050 16 4a ab 3c 3c 22 a0 3c c6 0e a7 3c 92 65 27 bc
       0.02090935 0.019547574 0.020392787 -0.010217087
000060 95 ee bc bc 60 b1 19 3b 23 55 02 3d b5 ad 0e bd
       -0.023062984 0.002345167 0.031819474 -0.03483363
000070 49 85 01 3d 84 c4 03 3c a4 7e 7e 3c 18 d5 61 bc
       0.03162125 0.008042458 0.015533123 -0.013783716

10 f4 [32]
000000 ea 26 3b 3f b8 c4 4d 3f 07 0b 49 3f 14 2a 0c 3e
       0.73106253 0.80378294 0.7853245 0.13687927
000010 28 77 48 3f 4e 9e 6d 3f f8 80 92 3e 50 9f 43 3e
       0.7830682 0.9281968 0.2861402 0.19103742
000020 3a 32 d5 3e e2 5c 52 3f 20 9b 3c 3f 00 4c 68 3a
       0.41639882 0.8217298 0.736742 0.00088614225
000030 ca 4c 07 3f ba 20 c1 3e 50 40 3d 3e 4c cc 20 3e
       0.52851546 0.3772028 0.18481565 0.15702933
000040 82 33 cc 3e 40 db 27 3d 10 bc 07 3f 43 8e 1d 3f
       0.39883047 0.040980577 0.53021336 0.615452
000050 4e a3 27 3f 20 ea 00 3e d0 3b 3c 3e af c3 05 3f
       0.6548356 0.12589312 0.18382192 0.52251714
000060 95 36 07 3f 10 7a 35 3d 42 86 47 3f f0 30 25 3f
       0.5281766 0.04430586 0.77939236 0.645278
000070 48 7f 32 3f fa 63 aa 3e 7f b0 01 3f 5c c7 0a 3e
       0.69725466 0.332794 0.50659937 0.13552612

11 f4 [32]
000000 00 00 00 00 00 00 00 00 00 00 00 00 00 00 00 00
       0.0 0.0 0.0 0.0
000010 00 00 00 00 00 00 00 00 00 00 00 00 00 00 00 00
       0.0 0.0 0.0 0.0
000020 00 00 00 00 00 00 00 00 00 00 00 00 00 00 00 00
       0.0 0.0 0.0 0.0
000030 00 00 00 00 00 00 00 00 00 00 00 00 00 00 00 00
       0.0 0.0 0.0 0.0
000040 00 00 00 00 00 00 00 00 00 00 00 00 00 00 00 00
       0.0 0.0 0.0 0.0
000050 00 00 00 00 00 00 00 00 00 00 00 00 00 00 00 00
       0.0 0.0 0.0 0.0
000060 00 00 00 00 00 00 00 00 00 00 00 00 00 00 00 00
       0.0 0.0 0.0 0.0
000070 00 00 00 00 00 00 00 00 00 00 00 00 00 00 00 00
       0.0 0.0 0.0 0.0

12 f4 [32]
000000 00 00 00 00 00 00 00 00 00 00 00 00 00 00 00 00
       0.0 0.0 0.0 0.0
000010 00 00 00 00 00 00 00 00 00 00 00 00 00 00 00 00
       0.0 0.0 0.0 0.0
000020 00 00 00 00 00 00 00 00 00 00 00 00 00 00 00 00
       0.0 0.0 0.0 0.0
000030 00 00 00 00 00 00 00 00 00 00 00 00 00 00 00 00
       0.0 0.0 0.0 0.0
000040 00 00 00 00 00 00 00 00 00 00 00 00 00 00 00 00
       0.0 0.0 0.0 0.0
000050 00 00 00 00 00 00 00 00 00 00 00 00 00 00 00 00
       0.0 0.0 0.0 0.0
000060 00 00 00 00 00 00 00 00 00 00 00 00 00 00 00 00
       0.0 0.0 0.0 0.0
000070 00 00 00 00 00 00 00 00 00 00 00 00 00 00 00 00
       0.0 0.0 0.0 0.0

13 f4 [32]
000000 00 00 80 3f 00 00 80 3f 00 00 80 3f 00 00 80 3f
       1.0 1.0 1.0 1.0
000010 00 00 80 3f 00 00 80 3f 00 00 80 3f 00 00 80 3f
       1.0 1.0 1.0 1.0
000020 00 00 80 3f 00 00 80 3f 00 00 80 3f 00 00 80 3f
       1.0 1.0 1.0 1.0
000030 00 00 80 3f 00 00 80 3f 00 00 80 3f 00 00 80 3f
       1.0 1.0 1.0 1.0
000040 00 00 80 3f 00 00 80 3f 00 00 80 3f 00 00 80 3f
       1.0 1.0 1.0 1.0
000050 00 00 80 3f 00 00 80 3f 00 00 80 3f 00 00 80 3f
       1.0 1.0 1.0 1.0
000060 00 00 80 3f 00 00 80 3f 00 00 80 3f 00 00 80 3f
       1.0 1.0 1.0 1.0
000070 00 00 80 3f 00 00 80 3f 00 00 80 3f 00 00 80 3f
       1.0 1.0 1.0 1.0

15 f4 [16, 32, 7, 7]
000000 56 1f 44 bc 60 b7 0e bc 00 32 4d ba ac 7b a2 3c
       -0.011970362 -0.008710712 -0.000782758 0.019834362
000010 68 10 88 3c e0 f6 5c 3b b8 fe 44 bb 0d e3 91 bc
       0.016609386 0.0033716485 -0.003005905 -0.017808462
000020 75 8b 75 bc 40 86 12 bc 44 00 cd bc c4 b0 ad bb
       -0.014986862 -0.0089431405 -0.02502454 -0.005300613
000030 6c 5c db bb 2c 62 b7 bc 0d b3 35 bc e4 4e 16 3c
       -0.006694367 -0.02238568 -0.011090052 0.009174082
000040 48 0b 59 3c 04 02 c3 bb 40 10 d3 3a d2 ec 9b bc
       0.013247319 -0.005951168 0.0016102865 -0.019033823
000050 d9 ed 44 bc 40 2c ad b9 94 44 72 3c 40 bc 8a bb
       -0.012019598 -0.000330301 0.014786858 -0.004233867
000060 3a 0b 9b 3c 6c e3 3f 3c 58 4c a5 bc e8 b7 13 bb
       0.018926252 0.011711936 -0.020178005 -0.0022540037
000070 28 e6 05 bb ce 2b b5 3c b8 f7 ec bb c4 dd 92 bc
       -0.0020431373 0.022115614 -0.007231679 -0.017928012
000080 7d ae c5 bc 9e a3 86 bc 5c ac 8d 3b 5c 99 81 3c
       -0.024131054 -0.01643544 0.0043235254 0.015820198
000090 ce 9e 3d bc 97 b8 bf bc b2 a7 ac 3c 2c 40 f3 bb
       -0.0115735065 -0.023403449 0.021076057 -0.0074234214
0000a0 00 42 d9 38 eb da 95 bc 00 28 a6 b9 e9 aa 70 bc
       0.0001035966 -0.018292865 -0.0003169179 -0.014689186
0000b0 38 ff b2 3c f8 88 2e 3c a2 5a 93 3c bf d0 cb bc
       0.021850213 0.010652773 0.017987553 -0.024879811
0000c0 d6 c7 8f 3c 6a 70 b4 3c a8 c3 85 bc c4 29 4d 3c
       0.017551344 0.02202626 -0.016328648 0.012522165
0000d0 18 3f 45 3b a4 8a 21 3c a9 fc 38 bc d1 b7 91 bc
       0.0030097421 0.009859715 -0.011290708 -0.017787846
0000e0 13 15 b3 bc 20 db 4c 3a 68 69 53 bb 9a 5d b8 bc
       -0.021860635 0.00078146346 -0.0032258872 -0.02250557
0000f0 06 c9 17 bc 75 ba 1f bc 14 aa bb bc 7c a3 a4 3c
       -0.009264236 -0.009749045 -0.022908248 0.020097487
000100 7f 4a 49 bc 08 80 32 bb 74 3b 72 3c dc 45 31 bc
       -0.012285828 -0.0027236957 0.014784683 -0.010819878
000110 7d 65 aa bc 1c c6 0d bc da 2a 92 bc 78 21 e3 bb
       -0.020800347 -0.00865319 -0.017842699 -0.00693148
000120 62 97 a4 bc de 56 c9 3c 34 21 b7 3c a7 bf c3 bc
       -0.020091716 0.024577554 0.0223547 -0.023895098
000130 08 2b cc 3b 48 23 fe 3b 58 0f 39 3c 90 e4 1f 3c
       0.0062307157 0.0077556707 0.011295162 0.009759083
000140 98 fa ac 3b 8a 8d 97 3c 32 f3 82 3c 88 cd 3b 3c
       0.0052788965 0.018500108 0.015985105 0.011462577
000150 04 24 b4 3b d8 40 b8 bb c8 cf d4 bb 00 ac d4 3b
       0.0054974575 -0.0056229644 -0.006494496 0.0064902306
000160 88 4a 00 bb 36 8c c8 3c 95 bc 24 bc 2f 66 c2 bc
       -0.0019575674 0.02448092 -0.010054727 -0.023730366
000170 dd 5f b6 bc ae c0 b9 bc c7 85 a5 bc 68 94 68 3c
       -0.022262508 -0.022674885 -0.020205392 0.014195539
000180 5e 5e 98 bc 90 44 eb 3b ec 45 93 3b 44 de 1f bc
       -0.018599685 0.007179804 0.0044944193 -0.009757582
000190 e4 90 0a 3c cc e4 aa 3c 90 c0 ab 3b 60 9b 75 3a
       0.008457396 0.020861052 0.005241461 0.0009369161
0001a0 f7 dc 2c bc 70 d3 5c 3c 30 cb ce 3a 10 0c 75 3c
       -0.010550729 0.013478145 0.0015777107 0.014956489
0001b0 28 69 54 bb b7 ae b7 bc 28 dd a3 3b 16 43 84 3c
       -0.003241131 -0.022422178 0.005000729 0.01614527
0001c0 b0 1c 17 3c 18 4a 47 bc ac 92 9d bc 7b 06 65 bc
       0.009223148 -0.012163661 -0.019234978 -0.013978596
0001d0 20 e7 31 3c 44 5b c3 bc d2 67 2f bc 60 34 b7 3b
       0.010858327 -0.02384723 -0.010705905 0.0055909604
0001e0 e0 d8 5c ba f4 e7 01 3c 53 99 74 bc c0 b7 93 3c
       -0.0008424651 0.007928837 -0.0149291335 0.018031955
0001f0 02 28 9c 3c 44 4f 97 bb e9 1f c4 bc 90 a7 84 3b
       0.019062046 -0.0046176035 -0.023940997 0.0040482953
000200 c4 fc b2 3c af 42 60 bc 00 64 04 3c 5b 30 af bc
       0.021849044 -0.013687774 0.0080804825 -0.021385362
000210 90 ce 8a 3c fa 37 b6 3c f2 42 6d bc 98 a4 60 3b
       0.0169442 0.022243489 -0.014481293 0.0034277793
000220 f8 4d 02 3c 00 05 ce 3b 8e 67 6b bc 20 a0 7e 3c
       0.0079531595 0.006287217 -0.014367951 0.015541106
000230 f2 29 89 bc 24 84 eb bb 50 29 28 3b 87 ae 78 bc
       -0.016743634 -0.0071873832 0.002565939 -0.015178329
000240 28 4a d4 3b 08 f0 81 3c c2 57 9c bc 7f ea 96 bc
       0.0064785667 0.015861526 -0.019084815 -0.018422363
000250 42 8b 7a bc 3c 51 f8 bb 46 fa c5 3c 00 93 67 b9
       -0.015291991 -0.0075780433 0.024167191 -0.00022084638
000260 70 f2 61 bb 2c 43 86 bc 2a f8 4f bc 04 f2 1a 3c
       -0.003447678 -0.016389452 -0.012693444 0.009457115
000270 b0 e6 23 3c a0 26 ce 3b d8 d9 c2 3b dd 0e 99 bc
       0.010003731 0.0062912256 0.005946379 -0.018683845
000280 ec fc 17 3c 3f ac 53 bc f7 7f 6f bc f4 12 a3 bb
       0.00927661 -0.012919485 -0.014617912 -0.0049766246
000290 c4 92 14 3c d2 e5 8b bc 4e 17 9d bc f6 16 a7 3c
       0.009068195 -0.01707736 -0.019176152 0.02039669
0002a0 0e 71 c9 3c c8 4f 3d bb 90 11 12 3b 9a a7 9b bc
       0.024590041 -0.0028886665 0.00222883 -0.019000817
0002b0 68 12 4a 3b 4c 52 ad 3b d6 9b 8e bc f0 0f e5 ba
       0.0030833725 0.0052893516 -0.017408293 -0.0017476063
0002c0 2e 7a 76 bc 7c 6a b6 3c 94 bf a6 bb 2e 83 91 3c
       -0.015043778 0.022267573 -0.005088756 0.017762747
0002d0 f0 cd 87 3b 48 92 2f bc 5a 18 94 bc 87 ae 5b bc
       0.0041444227 -0.0107160285 -0.018078018 -0.01340831
0002e0 68 2e ef 3b 00 a3 d3 b9 48 b7 63 3c b4 46 c1 bc
       0.007299233 -0.000403665 0.013898678 -0.023593284
0002f0 c5 c1 9c bc f2 1e 67 bc e0 1a 38 bb b8 b2 0d bb
       -0.019135365 -0.014106499 -0.002809219 -0.0021621417
000300 50 c1 32 3b 40 5f cf b9 2a 56 c3 3c fc 30 96 3c
       0.0027275868 -0.00039553083 0.023844797 0.018333904
000310 10 79 64 3c c0 f8 ea 3a a4 b4 09 3c 60 02 6a 3c
       0.013944879 0.0017926916 0.0084048845 0.014282793
000320 34 a6 1e 3c cc 4c 96 3c 63 78 a2 bc f0 4a ad 3b
       0.009683181 0.018347166 -0.019832795 0.0052884743
000330 2c 7e a2 3c 2c 72 98 3c 84 b7 95 3b 3a 36 96 bc
       0.019835554 0.018609129 0.004568996 -0.018336404
000340 48 d6 80 bb bc 15 7a 3c 28 95 8b bc 67 e1 6b bc
       -0.0039317943 0.015263971 -0.017038897 -0.014397002
000350 cc 46 8e 3c b7 23 94 bc a3 ee 9d bc 10 ee 87 3b
       0.017367743 -0.018083436 -0.01927883 0.0041482523
000360 80 27 74 b9 60 0a 4d 3c 00 dc a1 b9 a4 f8 08 bc
       -0.00023284368 0.012514681 -0.00030872226 -0.008360062
000370 70 0b b7 bb 41 1e 9a bc 48 86 45 bc c1 ea 91 bc
       -0.0055860803 -0.018813254 -0.012055941 -0.017812135
000380 98 67 e3 bb ce 35 64 bc b9 b4 6e bc 88 06 7e bb
       -0.0069398396 -0.013928844 -0.014569455 -0.0038761217
000390 d8 07 71 bc 70 14 8c ba 46 4e aa bc 80 25 39 3c
       -0.014711343 -0.0010687243 -0.020789277 0.011300445
0003a0 34 90 8d 3c 18 87 65 bb 20 6f 7f bb e0 dc f0 3b
       0.017280675 -0.003502315 -0.0038976148 0.007350549
0003b0 e0 68 59 3c 4a 87 63 bc cc b5 6f 3c f4 fb ba 3b
       0.013269633 -0.013887236 0.014630746 0.0057063047
0003c0 8c d0 4e 3c 55 bd 28 bc 60 0c 7d bb 56 e2 9d 3c
       0.012622964 -0.0102990465 -0.0038612112 0.019272964
0003d0 c4 1a 88 3b 4c 5a b1 bb 8c bd 9b bc 76 98 c2 bc
       0.0041535813 -0.0054123756 -0.019011281 -0.02375434
0003e0 70 f2 62 3c 8b d6 30 bc a0 a1 7c 3a c0 e3 0d bc
       0.013851747 -0.0107933385 0.0009637121 -0.008660257
0003f0 e7 2e 97 bc 40 13 b5 3c 92 4f b4 3c be 45 9c bc
       -0.018454982 0.022103906 0.022010598 -0.019076224

16 f4 [16]
000000 90 3b 10 3b 96 fd 90 bc 5c b0 81 bc f0 5d 67 bb
       0.0022008158 -0.017699044 -0.015831165 -0.0035303794
000010 cf 8c 85 bc 48 57 0a 3c e0 59 40 ba 1c 07 87 bb
       -0.016302494 0.008443661 -0.0007337611 -0.0041207206
000020 16 da 26 bc 47 1f 22 bc 6f 12 4f bc 26 72 b6 3c
       -0.010183832 -0.009895152 -0.012638672 0.022271227
000030 48 f6 08 bc 9e 69 9c 3c 48 1a 8b 3b 78 47 90 3b
       -0.008359499 0.019093331 0.0042450763 0.004403051

17 f4 [16]
000000 88 0a 64 3e 14 44 39 3f e2 b6 16 3f 7c 86 96 3e
       0.22269642 0.72369504 0.5887281 0.29399478
000010 5e 10 ed 3e 42 2a 58 3f ae 7e a9 3e ec 51 64 3f
       0.4630155 0.8443948 0.3310446 0.891875
000020 8c c7 44 3e 65 d7 2b 3f bc 48 30 3f 6a f5 74 3f
       0.19216746 0.6712554 0.68860984 0.9568697
000030 4e c7 3a 3f 4c 77 3b 3f d5 33 0a 3f 50 2b 11 3d
       0.72960365 0.7322891 0.5398534 0.035441697

18 f4 [16]
000000 00 00 00 00 00 00 00 00 00 00 00 00 00 00 00 00
       0.0 0.0 0.0 0.0
000010 00 00 00 00 00 00 00 00 00 00 00 00 00 00 00 00
       0.0 0.0 0.0 0.0
000020 00 00 00 00 00 00 00 00 00 00 00 00 00 00 00 00
       0.0 0.0 0.0 0.0
000030 00 00 00 00 00 00 00 00 00 00 00 00 00 00 00 00
       0.0 0.0 0.0 0.0

19 f4 [16]
000000 00 00 00 00 00 00 00 00 00 00 00 00 00 00 00 00
       0.0 0.0 0.0 0.0
000010 00 00 00 00 00 00 00 00 00 00 00 00 00 00 00 00
       0.0 0.0 0.0 0.0
000020 00 00 00 00 00 00 00 00 00 00 00 00 00 00 00 00
       0.0 0.0 0.0 0.0
000030 00 00 00 00 00 00 00 00 00 00 00 00 00 00 00 00
       0.0 0.0 0.0 0.0

20 f4 [16]
000000 00 00 80 3f 00 00 80 3f 00 00 80 3f 00 00 80 3f
       1.0 1.0 1.0 1.0
000010 00 00 80 3f 00 00 80 3f 00 00 80 3f 00 00 80 3f
       1.0 1.0 1.0 1.0
000020 00 00 80 3f 00 00 80 3f 00 00 80 3f 00 00 80 3f
       1.0 1.0 1.0 1.0
000030 00 00 80 3f 00 00 80 3f 00 00 80 3f 00 00 80 3f
       1.0 1.0 1.0 1.0

22 f4 [8, 16, 7, 7]
000000 40 bb 48 3a 00 5d 88 ba 16 77 ad 3c 88 35 e8 3b
       0.0007657297 -0.0010403693 0.021174949 0.0070864595
000010 c8 20 f2 bc 6e e7 9b bc 40 81 20 3c 06 9d 29 bc
       -0.029556647 -0.019031253 0.009796441 -0.010352379
000020 00 f8 81 3c 5c 54 c5 bc dc c2 76 bc 1d fe 0a 3d
       0.015865326 -0.024088077 -0.0150611065 0.033933748
000030 e3 30 86 bc 2c dc c9 3c 70 d7 95 bb 5c fd 8e bc
       -0.016380733 0.024641119 -0.0045728013 -0.017454796
000040 80 fe 85 3c c0 82 9f ba c5 8f 8b bc f0 7f eb 3b
       0.016356707 -0.0012169704 -0.017036328 0.007186882
000050 d7 3d 0a 3d 08 4b 07 bd 9c 68 ee bc 00 63 c3 bc
       0.03375038 -0.03303054 -0.029102616 -0.023850918
000060 8a b4 85 3c 21 41 12 3d 78 f9 83 3c 60 87 ad bc
       0.01632144 0.035706643 0.016110167 -0.021182716
000070 76 2c b9 3c d0 a7 fd 3b 40 d7 f9 3b 9e 13 fc 3c
       0.022604208 0.007740952 0.0076245368 0.030771073
000080 15 cf b8 bc 40 21 25 bc b8 0c 8e bb e2 20 8e 3c
       -0.022559682 -0.010078728 -0.0043350123 0.017349664
000090 c0 08 16 3a a0 11 1e bb d4 58 32 3c 2c d3 84 3c
       0.000572335 -0.0024119392 0.010885436 0.016213976
0000a0 84 50 03 bd 8a 8f 7c bc 9b 13 0c 3d 58 62 31 3c
       -0.032059208 -0.015415082 0.034198385 0.01082667
0000b0 2b 1c 06 3d 35 64 fb bc 50 3c c6 3b fc 30 bb bc
       0.032741707 -0.03068743 0.0060496703 -0.022850506
0000c0 b8 8c 57 3c d6 8f c9 3c a8 a0 c7 bc 20 29 2e 3c
       0.013156109 0.02460472 -0.024368599 0.010629922
0000d0 e6 ee f2 3c d0 26 3f 3b d0 a3 94 3c a0 38 48 bb
       0.029654931 0.002916742 0.018144518 -0.003055133
0000e0 60 94 a7 ba 9c 77 25 3c 00 e7 b1 bb 15 c0 ea bc
       -0.0012785308 0.010099318 -0.0054291487 -0.028656045
0000f0 fc 49 2e bc 13 89 86 bc ca f3 fe 3c f8 b1 e9 bc
       -0.010637756 -0.016422784 0.031122107 -0.028527245
000100 63 f9 ad bc d8 e5 02 bd 68 ec 44 3c d4 6c 7e bc
       -0.02123708 -0.031957477 0.012019254 -0.015528876
000110 34 17 26 3c c0 bd a1 bc 5c 3f 9d bc 1a da b6 3c
       0.010137368 -0.0197438 -0.019195251 0.022320796
000120 40 6a f3 3a 30 1d 25 bb 00 72 50 3c f8 6c fe bc
       0.0018571094 -0.00251944 0.012722492 -0.03105782
000130 64 8e 3c 3c b0 10 c8 bc 74 7c 01 bd 9a 11 8e bc
       0.011508558 -0.02442202 -0.03161283 -0.017342377
000140 90 cb 52 3b 38 27 e6 3b 8a 14 10 bd 88 b1 1a 3c
       0.003216479 0.007023718 -0.035175838 0.009441741
000150 00 29 82 39 9c 79 38 bc b8 da 03 bd f3 b2 e9 bc
       0.0002482608 -0.011259463 -0.03219101 -0.028527712
000160 00 57 6d b9 94 dc 71 3c e6 a6 32 bc ae 05 7b bc
       -0.00022634491 0.014762063 -0.0109040495 -0.015321178
000170 30 7a 3b bb 34 4f 8a 3c 41 ed fd bc 32 28 f5 3c
       -0.0028606765 0.01688347 -0.03099692 0.029926393
000180 f6 ee a7 3c 3a 1d d8 3c ee ee c7 3c 48 97 c2 3c
       0.020499688 0.026381124 0.024405923 0.023753777
000190 aa bc d5 bc c0 74 ce 3b aa 2d c9 bc 30 a4 f1 3b
       -0.026090939 0.006300539 -0.024557907 0.007374309
0001a0 98 df a9 3c ec 44 d4 3c 66 06 e4 3c 4e f0 b5 3c
       0.0207365 0.02591177 0.027835082 0.022209313
0001b0 38 75 3f 3c 4b 0a 08 bd c1 f0 01 3d 44 fc 47 3c
       0.011685662 -0.03321294 0.03172374 0.012206141
0001c0 e0 f7 1d 3c b0 ff 5b 3c e5 8b 98 bc f0 68 57 3b
       0.009641618 0.01342766 -0.018621394 0.0032868944
0001d0 11 c9 f9 bc c0 5b e8 3a 8c e9 ce 3c 43 16 f5 bc
       -0.030491384 0.0017727539 0.025257848 -0.029917842
0001e0 c0 e1 82 bb f0 21 33 3b c8 d1 0a bd de 6c be bc
       -0.0039941967 0.002733346 -0.03389147 -0.023245271
0001f0 d0 1a 41 3b bc 6d 87 bc 6a 29 97 3c a0 72 69 bb
       0.0029465444 -0.016531818 0.018452365 -0.00356213
000200 1c ff 3a bc 98 fc 01 bd 6e ae dd 3c be 74 89 3c
       -0.011413362 -0.031735033 0.027060714 0.0167793
000210 1c a5 63 3c 0a c5 93 bc 94 bc 87 3c 08 29 25 3c
       0.013894346 -0.018038291 0.016569413 0.010080583
000220 78 61 43 bc f1 f2 0d 3d c6 45 d7 3c 80 3e 6e 3a
       -0.011925094 0.034655515 0.026278388 0.0009088293
000230 1c 41 a2 bc d5 b9 d1 bc fe 82 f9 3c ce 47 4a bc
       -0.019806437 -0.025601307 0.03045797 -0.012346221
000240 2f b5 0d 3d 00 40 fc 3a 8c dd c1 3c 43 a9 d3 bc
       0.03459662 0.0019245148 0.023665212 -0.025837546
000250 88 87 16 3c 9a 49 f9 bc ea 67 4b bc 70 7f 69 3c
       0.009187587 -0.030430604 -0.012414912 0.014251575
000260 fc 17 14 bc e1 0d 12 3d 35 7d 97 bc 4e 7c c0 bc
       -0.009038921 0.035657767 -0.01849232 -0.023496773
000270 aa 2e 42 bc e0 2a ac 3c 52 ee 8e 3c a8 81 d9 bc
       -0.011851946 0.021016538 0.017447624 -0.026551083
000280 be 7f 9e bc 40 34 bb bb b8 a1 98 3c 0e e7 87 3c
       -0.019348022 -0.005713016 0.018631801 0.016589668
000290 20 80 74 bb 6c 41 d2 3c 0e 70 73 bc 62 5d 06 bd
       -0.0037307814 0.025665961 -0.014858259 -0.0328039
0002a0 07 38 8b bc 75 1c 8a bc 7f 1d 0d bd ff e0 03 bd
       -0.01699449 -0.016859272 -0.034451958 -0.032196995
0002b0 4e ac ff 3c d4 30 8e 3c 90 be c6 bc 72 c8 11 bd
       0.031210091 0.017357267 -0.02426079 -0.03559155
0002c0 b3 3c 9d bc 86 66 ed 3c a4 69 4d 3c f0 3d 63 3b
       -0.019193983 0.028979551 0.012537394 0.0034674369
0002d0 a3 66 9c bc 7f 1a 05 3d dc f0 ea bc 48 0d d9 bc
       -0.01909191 0.03249597 -0.028679304 -0.02649559
0002e0 70 e0 94 3c ce d1 4d bc 00 b3 05 bb 00 ee 84 bb
       0.018173426 -0.012562228 -0.0020400882 -0.004056692
0002f0 f0 97 bd 3c 9a 6d 0e bd 01 45 f0 bc 90 b1 ea 3b
       0.023143739 -0.034772493 -0.029329779 0.0071622804
000300 00 4a 27 ba 50 fd ca 3b 18 40 b0 3c 59 3f 0c 3d
       -0.00063815713 0.006194748 0.021514937 0.0342401
000310 78 c7 a9 bb 40 67 fd ba 73 b0 b1 bc 72 20 83 3c
       -0.005181249 -0.0019333139 -0.021690583 0.016006682
000320 26 56 4e bc e2 9b db 3c 10 95 05 bd b4 38 8c 3c
       -0.012593782 0.02680773 -0.03261286 0.017116882
000330 17 f4 0b 3d e0 5f 76 bc 56 b7 b1 3c ac cd a7 3c
       0.03416833 -0.015037507 0.021693867 0.020483814
000340 20 39 42 3c e0 54 5c 3b fd 73 03 bd fa e5 88 3c
       0.01185444 0.0033619925 -0.032093037 0.016711224
000350 34 2d 36 3c 70 3e cd 3c b3 33 d9 bc e8 4f 19 3c
       0.011119176 0.025054187 -0.02651391 0.00935743
000360 e4 bf 97 bb ec 2d d5 3c fc 0e 33 3c d0 a6 83 3b
       -0.0046310294 0.026022874 0.0109288655 0.0040176883
000370 60 67 4f bc 78 05 b6 3c 4e bd 6e bc c8 6c b7 bc
       -0.012658924 0.022219405 -0.014571501 -0.022390738
000380 fc 68 16 bc c8 d3 e6 bc ee e3 2a bc f6 80 d0 3c
       -0.009180304 -0.028177157 -0.010430319 0.025452118
000390 20 2d 3e bb 78 c5 95 3c fe 4c f2 bc d0 57 0b bd
       -0.0029018596 0.018282637 -0.029577728 -0.03401929
0003a0 86 17 6f bc 98 62 96 3c d8 21 1a bc 40 d3 e0 ba
       -0.014593011 0.01835756 -0.009407483 -0.0017152801
0003b0 80 f6 9e bc 68 85 d5 bc a0 25 54 bb 5e bc 84 bc
       -0.01940465 -0.02606459 -0.003237106 -0.016203102
0003c0 00 50 8e 39 c0 6d b6 bb 58 65 4a 3c c3 c0 e5 bc
       0.00027143955 -0.0055672824 0.012353264 -0.028046018
0003d0 57 bc 0c 3d 41 23 e5 bc 40 07 00 3a a3 f4 11 3d
       0.034359302 -0.027970912 0.0004883893 0.035633694
0003e0 94 f7 ac bb 05 24 06 3d 94 90 51 3c a0 d2 63 bb
       -0.005278537 0.032749195 0.012790818 -0.0034762993
0003f0 18 29 21 3c 8e 7d 14 bc 84 b1 84 3c 50 3f 03 3b
       0.009836458 -0.009063138 0.016197927 0.002002675

23 f4 [8]
000000 dc ea bb 3c 18 54 51 bc be 85 d3 3c 58 43 cb 3c
       0.022939138 -0.012776397 0.02582061 0.024812385
000010 fc 55 5d bc 5c 88 6b bc 00 b3 83 bb d8 41 cc bc
       -0.01350927 -0.014375772 -0.004019141 -0.02493374

24 f4 [8]
000000 30 aa b2 3d 38 52 d8 3d 08 3d c5 3d a8 11 17 3f
       0.08723867 0.10562557 0.096307814 0.59011316
000010 62 57 08 3f 1d cf 6c 3f 80 61 42 3f a2 7a bf 3e
       0.53258336 0.9250353 0.75930023 0.3739825

25 f4 [8]
000000 00 00 00 00 00 00 00 00 00 00 00 00 00 00 00 00
       0.0 0.0 0.0 0.0
000010 00 00 00 00 00 00 00 00 00 00 00 00 00 00 00 00
       0.0 0.0 0.0 0.0

26 f4 [8]
000000 00 00 00 00 00 00 00 00 00 00 00 00 00 00 00 00
       0.0 0.0 0.0 0.0
000010 00 00 00 00 00 00 00 00 00 00 00 00 00 00 00 00
       0.0 0.0 0.0 0.0

27 f4 [8]
000000 00 00 80 3f 00 00 80 3f 00 00 80 3f 00 00 80 3f
       1.0 1.0 1.0 1.0
000010 00 00 80 3f 00 00 80 3f 00 00 80 3f 00 00 80 3f
       1.0 1.0 1.0 1.0

29 f4 [20, 3, 7, 7]
000000 b4 a8 99 bc 8c 93 34 3d 14 6e db bc 08 a2 17 3c
       -0.018757202 0.044086024 -0.026785888 0.00925494
000010 ae 56 c3 bc 26 eb cb bc 22 98 1f bd 8e 65 96 3d
       -0.023845043 -0.024892401 -0.038963445 0.07343589
000020 a2 0a 91 bd 50 f4 9f 3b ba 0e 62 bd 18 68 43 bd
       -0.07082106 0.0048814192 -0.055189826 -0.047706693
000030 f2 8b 86 3d a2 7d a2 3d c1 31 a4 bd 0a 4a bd bc
       0.06569661 0.07934119 -0.08017302 -0.023106594
000040 86 74 fa bc 5c 13 45 3d 86 40 6e bd ac 45 28 3d
       -0.03057314 0.048114166 -0.058167003 0.04108207
000050 6a 98 0d 3d 3a 2f 2b bd 18 c8 97 bc e0 da 7a bb
       0.03456918 -0.041793086 -0.01852803 -0.0038277432
000060 2a 2f ea bc 78 cb 73 3d 7a c9 20 bd 68 b2 55 bd
       -0.028586943 0.059520215 -0.039254643 -0.052172095
000070 12 65 81 bd 6c 13 a8 bd d8 55 ad bc 48 c6 d7 bc
       -0.06318106 -0.082068294 -0.021159098 -0.026339665
000080 58 df 38 3c 10 a4 7a 3d 19 37 87 bd 8c 70 ad bc
       0.011283718 0.06119162 -0.06602306 -0.02117183
000090 fa bc cb bc f4 5b 9d 3d ec f0 9e 3d 2c c2 43 bd
       -0.024870384 0.07683554 0.07760796 -0.0477926
0000a0 98 da a1 3c e8 f9 ae 3c 58 5d 71 bc 30 83 52 3d
       0.019757554 0.021359399 -0.014731728 0.05139464
0000b0 80 8d b8 3c c8 e8 58 3d a8 19 1e 3d 96 b5 24 3d
       0.02252841 0.052956372 0.038598686 0.040212236
0000c0 d4 0b 97 3c 18 68 8f 3c e4 c2 f0 3c 70 1c 87 3c
       0.018438257 0.01750569 0.029389806 0.016493052
0000d0 ac 7d 08 bd bb 89 80 bd 0e 5f 8f bd e0 9d 1b bb
       -0.033322975 -0.0627627 -0.07000552 -0.0023745224
0000e0 80 6d c4 3b 80 f9 06 3c e3 26 8c bd 8c 61 91 bc
       0.0059944987 0.008238196 -0.068433546 -0.01774671
0000f0 6f 70 a5 bd c8 92 be bc 02 42 90 3d 2c 67 fe bc
       -0.08078086 -0.02326335 0.0704384 -0.031055056
000100 14 df 8c bc 29 42 61 bd 04 52 8b 3c 10 56 bd bb
       -0.017196216 -0.054994736 0.017006882 -0.0057780817
000110 64 55 60 3d 60 41 2d 3b 1e 27 6d bd e4 3a 49 3d
       0.054768935 0.0026436672 -0.057898633 0.049128428
000120 22 04 70 bd a6 3c 37 bd e0 c2 6e 3c dc c1 d5 3c
       -0.05859769 -0.044735573 0.014572829 0.026093416
000130 cf 9e 1b bd 80 04 5e ba 60 d5 89 3d c4 20 98 3c
       -0.03799325 -0.00084692985 0.06730151 0.018570311
000140 88 af 32 3d 24 f3 f0 3c a0 25 8a 3d 48 7a 54 3c
       0.04362443 0.029412813 0.06745458 0.012968607
000150 c0 89 02 3c 3a 5e bd bc 62 e1 86 3d 84 21 37 3d
       0.0079674125 -0.02311622 0.06585957 0.044709697
000160 c1 da 89 bd bb 31 6f bd 24 6d 79 bd 0c ce ef 3c
       -0.06731177 -0.058397036 -0.0608951 0.029273055
000170 1c 20 1d bd ef d7 2a bd b8 80 09 3d f4 fd 01 3d
       -0.0383607 -0.041709837 0.03357002 0.03173633
000180 60 b8 9b 3c b8 aa 3b bd 6e b2 54 bd b8 78 46 3d
       0.019008815 -0.045817107 -0.051927976 0.04845497
000190 02 3e 10 3d ef 2a 46 bd f5 ab a1 bd d8 c1 31 bc
       0.035215385 -0.04838079 -0.07894126 -0.010849439
0001a0 71 97 0d bd 7d 29 0a bd 00 4a 8c 39 b8 ee 85 bd
       -0.034568254 -0.033730973 0.00026758015 -0.065396726
0001b0 6b 67 94 bd 9e 83 2c bd 1c 5f 9b bc 0a 3e 91 bd
       -0.07246288 -0.042117707 -0.01896625 -0.07091911
0001c0 2a da 8e 3d 46 7d ca bc 34 ab 9c 3d 2e ce d6 bc
       0.06975205 -0.024717938 0.07649842 -0.026221361
0001d0 4e a7 a8 3d 76 c9 8b bd 48 48 1d bc 69 76 5b bd
       0.08235036 -0.06825535 -0.009599753 -0.05357972
0001e0 d0 3e fc 3b 70 30 76 bc 00 20 da bc 3c 6f a5 3d
       0.0076979175 -0.015026197 -0.026626587 0.08077857
0001f0 80 cf d6 3a 30 1f 8a bb a8 bf 94 bc 06 30 91 bd
       0.0016388744 -0.0042151436 -0.018157795 -0.07089238
000200 80 7d e1 bc 30 a6 c0 3b 1c 21 9c bd ae 93 9e 3d
       -0.027525663 0.005879186 -0.076235026 0.077430114
000210 14 92 d0 bc 80 a7 7d ba bc b5 29 3d 78 6b dd 3c
       -0.02546028 -0.00096761435 0.04143308 0.027028784
000220 9d 12 0a bd ac 93 6e 3d f8 aa a8 3d 10 94 31 bc
       -0.033709157 0.0582463 0.08235735 -0.0108385235
000230 4c c7 92 bd b8 ca 05 bd 30 81 63 bc 24 ee 5d 3d
       -0.07166919 -0.03266403 -0.013885781 0.054182187
000240 32 33 3a bd 20 03 5a 3d 98 55 3d 3c 44 c7 7b 3d
       -0.04545898 0.053225636 0.011556052 0.06146933
000250 34 80 92 3d e8 5f 07 bd c0 49 76 3c 60 9f 4e bb
       0.07153359 -0.033050448 0.015032232 -0.00315281
000260 68 ee 17 3d 65 2d 82 bd 09 68 4e bd 06 34 41 bd
       0.037092596 -0.063563146 -0.050392184 -0.047168754
000270 a4 e2 e1 bc 8e 81 19 3d 44 c4 92 bc 20 c3 7d 3c
       -0.027573891 0.03747707 -0.017915852 0.015488416
000280 da b4 44 bd e5 8b 9f bd f8 6e 59 bc f0 20 c4 bb
       -0.048024036 -0.07790355 -0.013271086 -0.005985372
000290 4c 03 c0 3c 62 fe 92 bd 60 cf 1a bd 94 74 2a bd
       0.023439072 -0.07177426 -0.037795424 -0.041615084
0002a0 9c 30 58 3d 33 5c 44 bd 1e 94 80 bd 94 1a 05 3d
       0.052780733 -0.04793949 -0.06278251 0.03249605
0002b0 c8 d0 14 bc 57 c1 06 bd 8d fb 8a bd 96 41 87 3d
       -0.00908298 -0.032899227 -0.06786261 0.066043064
0002c0 ea 40 d3 bc 32 c1 38 bd 68 41 e3 3c d4 98 a3 3d
       -0.02578779 -0.04510612 0.027741149 0.07988134
0002d0 bc 37 9f 3c 44 39 9e bd a0 6e c4 3b d5 28 a2 bd
       0.019435756 -0.07725766 0.005994633 -0.07917944
0002e0 f4 a9 8f 3c 97 8c a2 bd ca e1 a3 3d a8 e4 69 bc
       0.017537095 -0.07936972 0.0800205 -0.014275707
0002f0 c8 03 e2 bc 97 3f a3 bd 88 09 b0 3c cc 9e 54 3d
       -0.027589694 -0.07971113 0.02148892 0.051909253
000300 09 ea 88 bd 12 88 19 3d 56 92 a5 3d 7a bf e2 bc
       -0.06685264 0.037483282 0.08084552 -0.027679194
000310 08 62 75 bd 70 4d 75 3d 3e d9 9e 3d 7f d0 1c bd
       -0.059907943 0.059888303 0.077562794 -0.038284775
000320 64 73 30 bd e0 2d 71 3d 39 3b a6 bd b0 14 a0 bc
       -0.043078795 0.05888164 -0.081167646 -0.019541115
000330 60 af 99 3b d2 d6 05 bd 54 c4 0d 3d aa 14 1f 3d
       0.004690096 -0.03267557 0.03461106 0.038838066
000340 95 ba 59 bd f8 b3 67 bc 0e 5e a6 bc 80 74 94 3d
       -0.053156454 -0.014142029 -0.02030852 0.07248783
000350 82 67 0b 3d 30 a9 b2 bb 00 68 6f ba 16 c5 8f bd
       0.03403426 -0.0054522976 -0.00091326237 -0.07020013
000360 61 9c a2 bd d0 2f e6 3c 38 9a 52 bc 50 a1 a3 3d
       -0.07939983 0.02809897 -0.012854151 0.07989752
000370 90 88 8d bc 14 87 a5 3d c0 94 48 3c 83 2a 81 bd
       -0.017277032 0.08082405 0.012242496 -0.063069366
000380 98 c7 25 3d 96 1e 8f bd dc 87 c9 3c c8 2a 42 3d
       0.04047355 -0.06988256 0.024600916 0.04740408
000390 d6 6b 9f 3d ea 27 1e 3d 2a ca 57 bd c4 76 28 3d
       0.0778424 0.038612284 -0.052683033 0.04112889
0003a0 d4 83 77 3d 10 38 23 3c e8 b1 0f 3c 60 40 92 bc
       0.060428455 0.009962097 0.0087704435 -0.017852962
0003b0 21 47 4e bd 80 42 15 bb f8 c4 27 bc 6c 47 70 3d
       -0.050360803 -0.0022775233 -0.010239832 0.058661863
0003c0 e0 66 37 3d b0 a3 97 3b 40 c5 c3 ba 30 73 b7 3b
       0.044775844 0.0046276674 -0.0014936104 0.005598448
0003d0 b6 39 8e bd dc cd 8d bd b4 3a dd bc b0 dc 77 3d
       -0.06944601 -0.0692403 -0.02700553 0.0605132
0003e0 7c c9 38 3d 41 3d 0d bd e0 a4 05 bc 34 b1 97 3c
       0.045114025 -0.034482244 -0.008156985 0.018517114
0003f0 c4 fd ee bc e0 f2 1e bb d6 ea 85 3d 00 8f 99 39
       -0.02917374 -0.0024253651 0.06538932 0.00029288977

30 f4 [20]
000000 2c ff c1 3c d6 7a 89 3d 14 98 d6 3c d4 0a 8d bd
       0.023681246 0.06712882 0.026195563 -0.06886831
000010 19 47 67 bd 28 20 9d 3d 10 0b 77 3c 04 3c db 3c
       -0.05646429 0.07672149 0.015078321 0.026762016
000020 aa 9b 21 bd 2e 32 58 bd 88 56 16 bd fe b7 17 bd
       -0.039455093 -0.05278223 -0.036703616 -0.037040703
000030 80 06 82 3a 28 64 11 3c 56 45 0d 3d 6c f2 87 bc
       0.000992015 0.008873977 0.034489952 -0.016595088
000040 80 ff 3f 3b d8 00 a2 3d 14 40 b8 bc 20 6f e2 3b
       0.0029296577 0.07910317 -0.022491492 0.00691022

31 f4 [20]
000000 6e 48 23 3f d6 d7 ec 3e c0 13 8f 3c a6 a9 81 3e
       0.63782394 0.4625842 0.017465472 0.25324744
000010 e4 ac 0e 3e ce 47 76 3f 48 0e a3 3e 26 41 0f 3f
       0.1393314 0.96203315 0.31846833 0.55958784
000020 06 d1 11 3f 98 1c 07 3f d9 37 1c 3f 78 3b 77 3e
       0.5695957 0.52778006 0.61022717 0.2414378
000030 10 0a 3c 3e 39 1d 44 3f e6 8d 40 3f 44 dd 65 3f
       0.18363214 0.7660709 0.7521652 0.8979075
000040 04 41 a7 3e 00 cf 92 3b dc b1 92 3e d0 71 0e 3e
       0.3266679 0.0044802427 0.2865132 0.13910604

32 f4 [20]
000000 00 00 00 00 00 00 00 00 00 00 00 00 00 00 00 00
       0.0 0.0 0.0 0.0
000010 00 00 00 00 00 00 00 00 00 00 00 00 00 00 00 00
       0.0 0.0 0.0 0.0
000020 00 00 00 00 00 00 00 00 00 00 00 00 00 00 00 00
       0.0 0.0 0.0 0.0
000030 00 00 00 00 00 00 00 00 00 00 00 00 00 00 00 00
       0.0 0.0 0.0 0.0
000040 00 00 00 00 00 00 00 00 00 00 00 00 00 00 00 00
       0.0 0.0 0.0 0.0

33 f4 [20]
000000 00 00 00 00 00 00 00 00 00 00 00 00 00 00 00 00
       0.0 0.0 0.0 0.0
000010 00 00 00 00 00 00 00 00 00 00 00 00 00 00 00 00
       0.0 0.0 0.0 0.0
000020 00 00 00 00 00 00 00 00 00 00 00 00 00 00 00 00
       0.0 0.0 0.0 0.0
000030 00 00 00 00 00 00 00 00 00 00 00 00 00 00 00 00
       0.0 0.0 0.0 0.0
000040 00 00 00 00 00 00 00 00 00 00 00 00 00 00 00 00
       0.0 0.0 0.0 0.0

34 f4 [20]
000000 00 00 80 3f 00 00 80 3f 00 00 80 3f 00 00 80 3f
       1.0 1.0 1.0 1.0
000010 00 00 80 3f 00 00 80 3f 00 00 80 3f 00 00 80 3f
       1.0 1.0 1.0 1.0
000020 00 00 80 3f 00 00 80 3f 00 00 80 3f 00 00 80 3f
       1.0 1.0 1.0 1.0
000030 00 00 80 3f 00 00 80 3f 00 00 80 3f 00 00 80 3f
       1.0 1.0 1.0 1.0
000040 00 00 80 3f 00 00 80 3f 00 00 80 3f 00 00 80 3f
       1.0 1.0 1.0 1.0
